name: "ResNet-269"

mem_param { optimize_test: true }
####################################### data #######################################
input: "data"
input_shape {
  dim: 1
  dim: 3
  dim: 700
  dim: 700
}

input: "rois"
input_shape {
  dim: 150
  dim: 5
}


layer {
  name: "caffe.SpatialConvolution_0"
  type: "Convolution"
  bottom: "data"
  top: "caffe.SpatialConvolution_0"
  convolution_param {
    num_output: 64
    bias_term: false
    pad_h: 3
    pad_w: 3
    kernel_h: 7
    kernel_w: 7
    stride_h: 2
    stride_w: 2
  }
}
layer {
  name: "caffe.BN_1"
  type: "BN"
  bottom: "caffe.SpatialConvolution_0"
  top: "caffe.BN_1"
  param {
    lr_mult: 1
    decay_mult: 0
  }
  param {
    lr_mult: 1
    decay_mult: 0
  }
  bn_param { frozen: true
    slope_filler {
      value: 1
    }
    bias_filler {
      value: 0
    }
  }
}
layer {
  name: "caffe.ReLU_2"
  type: "ReLU"
  bottom: "caffe.BN_1"
  top: "caffe.BN_1"
}
layer {
  name: "caffe.Pooling_3"
  type: "Pooling"
  bottom: "caffe.BN_1"
  top: "caffe.Pooling_3"
  pooling_param {
    pool: MAX
    kernel_h: 3
    kernel_w: 3
    stride_h: 2
    stride_w: 2
    pad_h: 0
    pad_w: 0
  }
}
layer {
  name: "caffe.SpatialConvolution_4"
  type: "Convolution"
  bottom: "caffe.Pooling_3"
  top: "caffe.SpatialConvolution_4"
  convolution_param {
    num_output: 64
    bias_term: false
    pad_h: 0
    pad_w: 0
    kernel_h: 1
    kernel_w: 1
    stride_h: 1
    stride_w: 1
  }
}
layer {
  name: "caffe.BN_5"
  type: "BN"
  bottom: "caffe.SpatialConvolution_4"
  top: "caffe.BN_5"
  param {
    lr_mult: 1
    decay_mult: 0
  }
  param {
    lr_mult: 1
    decay_mult: 0
  }
  bn_param { frozen: true
    slope_filler {
      value: 1
    }
    bias_filler {
      value: 0
    }
  }
}
layer {
  name: "caffe.ReLU_6"
  type: "ReLU"
  bottom: "caffe.BN_5"
  top: "caffe.BN_5"
}
layer {
  name: "caffe.SpatialConvolution_7"
  type: "Convolution"
  bottom: "caffe.BN_5"
  top: "caffe.SpatialConvolution_7"
  convolution_param {
    num_output: 64
    bias_term: false
    pad_h: 1
    pad_w: 1
    kernel_h: 3
    kernel_w: 3
    stride_h: 1
    stride_w: 1
  }
}
layer {
  name: "caffe.BN_8"
  type: "BN"
  bottom: "caffe.SpatialConvolution_7"
  top: "caffe.BN_8"
  param {
    lr_mult: 1
    decay_mult: 0
  }
  param {
    lr_mult: 1
    decay_mult: 0
  }
  bn_param { frozen: true
    slope_filler {
      value: 1
    }
    bias_filler {
      value: 0
    }
  }
}
layer {
  name: "caffe.ReLU_9"
  type: "ReLU"
  bottom: "caffe.BN_8"
  top: "caffe.BN_8"
}
layer {
  name: "caffe.SpatialConvolution_10"
  type: "Convolution"
  bottom: "caffe.BN_8"
  top: "caffe.SpatialConvolution_10"
  convolution_param {
    num_output: 256
    bias_term: false
    pad_h: 0
    pad_w: 0
    kernel_h: 1
    kernel_w: 1
    stride_h: 1
    stride_w: 1
  }
}
layer {
  name: "caffe.SpatialConvolution_11"
  type: "Convolution"
  bottom: "caffe.Pooling_3"
  top: "caffe.SpatialConvolution_11"
  convolution_param {
    num_output: 256
    bias_term: false
    pad_h: 0
    pad_w: 0
    kernel_h: 1
    kernel_w: 1
    stride_h: 1
    stride_w: 1
  }
}
layer {
  name: "caffe.Eltwise_12"
  type: "Eltwise"
  bottom: "caffe.SpatialConvolution_10"
  bottom: "caffe.SpatialConvolution_11"
  top: "caffe.Eltwise_12"
}
layer {
  name: "caffe.BN_13"
  type: "BN"
  bottom: "caffe.Eltwise_12"
  top: "caffe.BN_13"
  param {
    lr_mult: 1
    decay_mult: 0
  }
  param {
    lr_mult: 1
    decay_mult: 0
  }
  bn_param { frozen: true
    slope_filler {
      value: 1
    }
    bias_filler {
      value: 0
    }
  }
}
layer {
  name: "caffe.ReLU_14"
  type: "ReLU"
  bottom: "caffe.BN_13"
  top: "caffe.BN_13"
}
layer {
  name: "caffe.SpatialConvolution_15"
  type: "Convolution"
  bottom: "caffe.BN_13"
  top: "caffe.SpatialConvolution_15"
  convolution_param {
    num_output: 64
    bias_term: false
    pad_h: 0
    pad_w: 0
    kernel_h: 1
    kernel_w: 1
    stride_h: 1
    stride_w: 1
  }
}
layer {
  name: "caffe.BN_16"
  type: "BN"
  bottom: "caffe.SpatialConvolution_15"
  top: "caffe.BN_16"
  param {
    lr_mult: 1
    decay_mult: 0
  }
  param {
    lr_mult: 1
    decay_mult: 0
  }
  bn_param { frozen: true
    slope_filler {
      value: 1
    }
    bias_filler {
      value: 0
    }
  }
}
layer {
  name: "caffe.ReLU_17"
  type: "ReLU"
  bottom: "caffe.BN_16"
  top: "caffe.BN_16"
}
layer {
  name: "caffe.SpatialConvolution_18"
  type: "Convolution"
  bottom: "caffe.BN_16"
  top: "caffe.SpatialConvolution_18"
  convolution_param {
    num_output: 64
    bias_term: false
    pad_h: 1
    pad_w: 1
    kernel_h: 3
    kernel_w: 3
    stride_h: 1
    stride_w: 1
  }
}
layer {
  name: "caffe.BN_19"
  type: "BN"
  bottom: "caffe.SpatialConvolution_18"
  top: "caffe.BN_19"
  param {
    lr_mult: 1
    decay_mult: 0
  }
  param {
    lr_mult: 1
    decay_mult: 0
  }
  bn_param { frozen: true
    slope_filler {
      value: 1
    }
    bias_filler {
      value: 0
    }
  }
}
layer {
  name: "caffe.ReLU_20"
  type: "ReLU"
  bottom: "caffe.BN_19"
  top: "caffe.BN_19"
}
layer {
  name: "caffe.SpatialConvolution_21"
  type: "Convolution"
  bottom: "caffe.BN_19"
  top: "caffe.SpatialConvolution_21"
  convolution_param {
    num_output: 256
    bias_term: false
    pad_h: 0
    pad_w: 0
    kernel_h: 1
    kernel_w: 1
    stride_h: 1
    stride_w: 1
  }
}
layer {
  name: "caffe.Eltwise_22"
  type: "Eltwise"
  bottom: "caffe.SpatialConvolution_21"
  bottom: "caffe.Eltwise_12"
  top: "caffe.Eltwise_22"
}
layer {
  name: "caffe.BN_23"
  type: "BN"
  bottom: "caffe.Eltwise_22"
  top: "caffe.BN_23"
  param {
    lr_mult: 1
    decay_mult: 0
  }
  param {
    lr_mult: 1
    decay_mult: 0
  }
  bn_param { frozen: true
    slope_filler {
      value: 1
    }
    bias_filler {
      value: 0
    }
  }
}
layer {
  name: "caffe.ReLU_24"
  type: "ReLU"
  bottom: "caffe.BN_23"
  top: "caffe.BN_23"
}
layer {
  name: "caffe.SpatialConvolution_25"
  type: "Convolution"
  bottom: "caffe.BN_23"
  top: "caffe.SpatialConvolution_25"
  convolution_param {
    num_output: 64
    bias_term: false
    pad_h: 0
    pad_w: 0
    kernel_h: 1
    kernel_w: 1
    stride_h: 1
    stride_w: 1
  }
}
layer {
  name: "caffe.BN_26"
  type: "BN"
  bottom: "caffe.SpatialConvolution_25"
  top: "caffe.BN_26"
  param {
    lr_mult: 1
    decay_mult: 0
  }
  param {
    lr_mult: 1
    decay_mult: 0
  }
  bn_param { frozen: true
    slope_filler {
      value: 1
    }
    bias_filler {
      value: 0
    }
  }
}
layer {
  name: "caffe.ReLU_27"
  type: "ReLU"
  bottom: "caffe.BN_26"
  top: "caffe.BN_26"
}
layer {
  name: "caffe.SpatialConvolution_28"
  type: "Convolution"
  bottom: "caffe.BN_26"
  top: "caffe.SpatialConvolution_28"
  convolution_param {
    num_output: 64
    bias_term: false
    pad_h: 1
    pad_w: 1
    kernel_h: 3
    kernel_w: 3
    stride_h: 1
    stride_w: 1
  }
}
layer {
  name: "caffe.BN_29"
  type: "BN"
  bottom: "caffe.SpatialConvolution_28"
  top: "caffe.BN_29"
  param {
    lr_mult: 1
    decay_mult: 0
  }
  param {
    lr_mult: 1
    decay_mult: 0
  }
  bn_param { frozen: true
    slope_filler {
      value: 1
    }
    bias_filler {
      value: 0
    }
  }
}
layer {
  name: "caffe.ReLU_30"
  type: "ReLU"
  bottom: "caffe.BN_29"
  top: "caffe.BN_29"
}
layer {
  name: "caffe.SpatialConvolution_31"
  type: "Convolution"
  bottom: "caffe.BN_29"
  top: "caffe.SpatialConvolution_31"
  convolution_param {
    num_output: 256
    bias_term: false
    pad_h: 0
    pad_w: 0
    kernel_h: 1
    kernel_w: 1
    stride_h: 1
    stride_w: 1
  }
}
layer {
  name: "caffe.Eltwise_32"
  type: "Eltwise"
  bottom: "caffe.SpatialConvolution_31"
  bottom: "caffe.Eltwise_22"
  top: "caffe.Eltwise_32"
}
layer {
  name: "caffe.BN_33"
  type: "BN"
  bottom: "caffe.Eltwise_32"
  top: "caffe.BN_33"
  param {
    lr_mult: 1
    decay_mult: 0
  }
  param {
    lr_mult: 1
    decay_mult: 0
  }
  bn_param { frozen: true
    slope_filler {
      value: 1
    }
    bias_filler {
      value: 0
    }
  }
}
layer {
  name: "caffe.ReLU_34"
  type: "ReLU"
  bottom: "caffe.BN_33"
  top: "caffe.BN_33"
}
layer {
  name: "caffe.SpatialConvolution_35"
  type: "Convolution"
  bottom: "caffe.BN_33"
  top: "caffe.SpatialConvolution_35"
  convolution_param {
    num_output: 128
    bias_term: false
    pad_h: 0
    pad_w: 0
    kernel_h: 1
    kernel_w: 1
    stride_h: 1
    stride_w: 1
  }
}
layer {
  name: "caffe.BN_36"
  type: "BN"
  bottom: "caffe.SpatialConvolution_35"
  top: "caffe.BN_36"
  param {
    lr_mult: 1
    decay_mult: 0
  }
  param {
    lr_mult: 1
    decay_mult: 0
  }
  bn_param { frozen: true
    slope_filler {
      value: 1
    }
    bias_filler {
      value: 0
    }
  }
}
layer {
  name: "caffe.ReLU_37"
  type: "ReLU"
  bottom: "caffe.BN_36"
  top: "caffe.BN_36"
}
layer {
  name: "caffe.SpatialConvolution_38"
  type: "Convolution"
  bottom: "caffe.BN_36"
  top: "caffe.SpatialConvolution_38"
  convolution_param {
    num_output: 128
    bias_term: false
    pad_h: 1
    pad_w: 1
    kernel_h: 3
    kernel_w: 3
    stride_h: 2
    stride_w: 2
  }
}
layer {
  name: "caffe.BN_39"
  type: "BN"
  bottom: "caffe.SpatialConvolution_38"
  top: "caffe.BN_39"
  param {
    lr_mult: 1
    decay_mult: 0
  }
  param {
    lr_mult: 1
    decay_mult: 0
  }
  bn_param { frozen: true
    slope_filler {
      value: 1
    }
    bias_filler {
      value: 0
    }
  }
}
layer {
  name: "caffe.ReLU_40"
  type: "ReLU"
  bottom: "caffe.BN_39"
  top: "caffe.BN_39"
}
layer {
  name: "caffe.SpatialConvolution_41"
  type: "Convolution"
  bottom: "caffe.BN_39"
  top: "caffe.SpatialConvolution_41"
  convolution_param {
    num_output: 512
    bias_term: false
    pad_h: 0
    pad_w: 0
    kernel_h: 1
    kernel_w: 1
    stride_h: 1
    stride_w: 1
  }
}
layer {
  name: "caffe.SpatialConvolution_42"
  type: "Convolution"
  bottom: "caffe.BN_33"
  top: "caffe.SpatialConvolution_42"
  convolution_param {
    num_output: 512
    bias_term: false
    pad_h: 0
    pad_w: 0
    kernel_h: 1
    kernel_w: 1
    stride_h: 2
    stride_w: 2
  }
}
layer {
  name: "caffe.Eltwise_43"
  type: "Eltwise"
  bottom: "caffe.SpatialConvolution_41"
  bottom: "caffe.SpatialConvolution_42"
  top: "caffe.Eltwise_43"
}
layer {
  name: "caffe.BN_44"
  type: "BN"
  bottom: "caffe.Eltwise_43"
  top: "caffe.BN_44"
  param {
    lr_mult: 1
    decay_mult: 0
  }
  param {
    lr_mult: 1
    decay_mult: 0
  }
  bn_param { frozen: true
    slope_filler {
      value: 1
    }
    bias_filler {
      value: 0
    }
  }
}
layer {
  name: "caffe.ReLU_45"
  type: "ReLU"
  bottom: "caffe.BN_44"
  top: "caffe.BN_44"
}
layer {
  name: "caffe.SpatialConvolution_46"
  type: "Convolution"
  bottom: "caffe.BN_44"
  top: "caffe.SpatialConvolution_46"
  convolution_param {
    num_output: 128
    bias_term: false
    pad_h: 0
    pad_w: 0
    kernel_h: 1
    kernel_w: 1
    stride_h: 1
    stride_w: 1
  }
}
layer {
  name: "caffe.BN_47"
  type: "BN"
  bottom: "caffe.SpatialConvolution_46"
  top: "caffe.BN_47"
  param {
    lr_mult: 1
    decay_mult: 0
  }
  param {
    lr_mult: 1
    decay_mult: 0
  }
  bn_param { frozen: true
    slope_filler {
      value: 1
    }
    bias_filler {
      value: 0
    }
  }
}
layer {
  name: "caffe.ReLU_48"
  type: "ReLU"
  bottom: "caffe.BN_47"
  top: "caffe.BN_47"
}
layer {
  name: "caffe.SpatialConvolution_49"
  type: "Convolution"
  bottom: "caffe.BN_47"
  top: "caffe.SpatialConvolution_49"
  convolution_param {
    num_output: 128
    bias_term: false
    pad_h: 1
    pad_w: 1
    kernel_h: 3
    kernel_w: 3
    stride_h: 1
    stride_w: 1
  }
}
layer {
  name: "caffe.BN_50"
  type: "BN"
  bottom: "caffe.SpatialConvolution_49"
  top: "caffe.BN_50"
  param {
    lr_mult: 1
    decay_mult: 0
  }
  param {
    lr_mult: 1
    decay_mult: 0
  }
  bn_param { frozen: true
    slope_filler {
      value: 1
    }
    bias_filler {
      value: 0
    }
  }
}
layer {
  name: "caffe.ReLU_51"
  type: "ReLU"
  bottom: "caffe.BN_50"
  top: "caffe.BN_50"
}
layer {
  name: "caffe.SpatialConvolution_52"
  type: "Convolution"
  bottom: "caffe.BN_50"
  top: "caffe.SpatialConvolution_52"
  convolution_param {
    num_output: 512
    bias_term: false
    pad_h: 0
    pad_w: 0
    kernel_h: 1
    kernel_w: 1
    stride_h: 1
    stride_w: 1
  }
}
layer {
  name: "caffe.Eltwise_53"
  type: "Eltwise"
  bottom: "caffe.SpatialConvolution_52"
  bottom: "caffe.Eltwise_43"
  top: "caffe.Eltwise_53"
}
layer {
  name: "caffe.BN_54"
  type: "BN"
  bottom: "caffe.Eltwise_53"
  top: "caffe.BN_54"
  param {
    lr_mult: 1
    decay_mult: 0
  }
  param {
    lr_mult: 1
    decay_mult: 0
  }
  bn_param { frozen: true
    slope_filler {
      value: 1
    }
    bias_filler {
      value: 0
    }
  }
}
layer {
  name: "caffe.ReLU_55"
  type: "ReLU"
  bottom: "caffe.BN_54"
  top: "caffe.BN_54"
}
layer {
  name: "caffe.SpatialConvolution_56"
  type: "Convolution"
  bottom: "caffe.BN_54"
  top: "caffe.SpatialConvolution_56"
  convolution_param {
    num_output: 128
    bias_term: false
    pad_h: 0
    pad_w: 0
    kernel_h: 1
    kernel_w: 1
    stride_h: 1
    stride_w: 1
  }
}
layer {
  name: "caffe.BN_57"
  type: "BN"
  bottom: "caffe.SpatialConvolution_56"
  top: "caffe.BN_57"
  param {
    lr_mult: 1
    decay_mult: 0
  }
  param {
    lr_mult: 1
    decay_mult: 0
  }
  bn_param { frozen: true
    slope_filler {
      value: 1
    }
    bias_filler {
      value: 0
    }
  }
}
layer {
  name: "caffe.ReLU_58"
  type: "ReLU"
  bottom: "caffe.BN_57"
  top: "caffe.BN_57"
}
layer {
  name: "caffe.SpatialConvolution_59"
  type: "Convolution"
  bottom: "caffe.BN_57"
  top: "caffe.SpatialConvolution_59"
  convolution_param {
    num_output: 128
    bias_term: false
    pad_h: 1
    pad_w: 1
    kernel_h: 3
    kernel_w: 3
    stride_h: 1
    stride_w: 1
  }
}
layer {
  name: "caffe.BN_60"
  type: "BN"
  bottom: "caffe.SpatialConvolution_59"
  top: "caffe.BN_60"
  param {
    lr_mult: 1
    decay_mult: 0
  }
  param {
    lr_mult: 1
    decay_mult: 0
  }
  bn_param { frozen: true
    slope_filler {
      value: 1
    }
    bias_filler {
      value: 0
    }
  }
}
layer {
  name: "caffe.ReLU_61"
  type: "ReLU"
  bottom: "caffe.BN_60"
  top: "caffe.BN_60"
}
layer {
  name: "caffe.SpatialConvolution_62"
  type: "Convolution"
  bottom: "caffe.BN_60"
  top: "caffe.SpatialConvolution_62"
  convolution_param {
    num_output: 512
    bias_term: false
    pad_h: 0
    pad_w: 0
    kernel_h: 1
    kernel_w: 1
    stride_h: 1
    stride_w: 1
  }
}
layer {
  name: "caffe.Eltwise_63"
  type: "Eltwise"
  bottom: "caffe.SpatialConvolution_62"
  bottom: "caffe.Eltwise_53"
  top: "caffe.Eltwise_63"
}
layer {
  name: "caffe.BN_64"
  type: "BN"
  bottom: "caffe.Eltwise_63"
  top: "caffe.BN_64"
  param {
    lr_mult: 1
    decay_mult: 0
  }
  param {
    lr_mult: 1
    decay_mult: 0
  }
  bn_param { frozen: true
    slope_filler {
      value: 1
    }
    bias_filler {
      value: 0
    }
  }
}
layer {
  name: "caffe.ReLU_65"
  type: "ReLU"
  bottom: "caffe.BN_64"
  top: "caffe.BN_64"
}
layer {
  name: "caffe.SpatialConvolution_66"
  type: "Convolution"
  bottom: "caffe.BN_64"
  top: "caffe.SpatialConvolution_66"
  convolution_param {
    num_output: 128
    bias_term: false
    pad_h: 0
    pad_w: 0
    kernel_h: 1
    kernel_w: 1
    stride_h: 1
    stride_w: 1
  }
}
layer {
  name: "caffe.BN_67"
  type: "BN"
  bottom: "caffe.SpatialConvolution_66"
  top: "caffe.BN_67"
  param {
    lr_mult: 1
    decay_mult: 0
  }
  param {
    lr_mult: 1
    decay_mult: 0
  }
  bn_param { frozen: true
    slope_filler {
      value: 1
    }
    bias_filler {
      value: 0
    }
  }
}
layer {
  name: "caffe.ReLU_68"
  type: "ReLU"
  bottom: "caffe.BN_67"
  top: "caffe.BN_67"
}
layer {
  name: "caffe.SpatialConvolution_69"
  type: "Convolution"
  bottom: "caffe.BN_67"
  top: "caffe.SpatialConvolution_69"
  convolution_param {
    num_output: 128
    bias_term: false
    pad_h: 1
    pad_w: 1
    kernel_h: 3
    kernel_w: 3
    stride_h: 1
    stride_w: 1
  }
}
layer {
  name: "caffe.BN_70"
  type: "BN"
  bottom: "caffe.SpatialConvolution_69"
  top: "caffe.BN_70"
  param {
    lr_mult: 1
    decay_mult: 0
  }
  param {
    lr_mult: 1
    decay_mult: 0
  }
  bn_param { frozen: true
    slope_filler {
      value: 1
    }
    bias_filler {
      value: 0
    }
  }
}
layer {
  name: "caffe.ReLU_71"
  type: "ReLU"
  bottom: "caffe.BN_70"
  top: "caffe.BN_70"
}
layer {
  name: "caffe.SpatialConvolution_72"
  type: "Convolution"
  bottom: "caffe.BN_70"
  top: "caffe.SpatialConvolution_72"
  convolution_param {
    num_output: 512
    bias_term: false
    pad_h: 0
    pad_w: 0
    kernel_h: 1
    kernel_w: 1
    stride_h: 1
    stride_w: 1
  }
}
layer {
  name: "caffe.Eltwise_73"
  type: "Eltwise"
  bottom: "caffe.SpatialConvolution_72"
  bottom: "caffe.Eltwise_63"
  top: "caffe.Eltwise_73"
}
layer {
  name: "caffe.BN_74"
  type: "BN"
  bottom: "caffe.Eltwise_73"
  top: "caffe.BN_74"
  param {
    lr_mult: 1
    decay_mult: 0
  }
  param {
    lr_mult: 1
    decay_mult: 0
  }
  bn_param { frozen: true
    slope_filler {
      value: 1
    }
    bias_filler {
      value: 0
    }
  }
}
layer {
  name: "caffe.ReLU_75"
  type: "ReLU"
  bottom: "caffe.BN_74"
  top: "caffe.BN_74"
}
layer {
  name: "caffe.SpatialConvolution_76"
  type: "Convolution"
  bottom: "caffe.BN_74"
  top: "caffe.SpatialConvolution_76"
  convolution_param {
    num_output: 128
    bias_term: false
    pad_h: 0
    pad_w: 0
    kernel_h: 1
    kernel_w: 1
    stride_h: 1
    stride_w: 1
  }
}
layer {
  name: "caffe.BN_77"
  type: "BN"
  bottom: "caffe.SpatialConvolution_76"
  top: "caffe.BN_77"
  param {
    lr_mult: 1
    decay_mult: 0
  }
  param {
    lr_mult: 1
    decay_mult: 0
  }
  bn_param { frozen: true
    slope_filler {
      value: 1
    }
    bias_filler {
      value: 0
    }
  }
}
layer {
  name: "caffe.ReLU_78"
  type: "ReLU"
  bottom: "caffe.BN_77"
  top: "caffe.BN_77"
}
layer {
  name: "caffe.SpatialConvolution_79"
  type: "Convolution"
  bottom: "caffe.BN_77"
  top: "caffe.SpatialConvolution_79"
  convolution_param {
    num_output: 128
    bias_term: false
    pad_h: 1
    pad_w: 1
    kernel_h: 3
    kernel_w: 3
    stride_h: 1
    stride_w: 1
  }
}
layer {
  name: "caffe.BN_80"
  type: "BN"
  bottom: "caffe.SpatialConvolution_79"
  top: "caffe.BN_80"
  param {
    lr_mult: 1
    decay_mult: 0
  }
  param {
    lr_mult: 1
    decay_mult: 0
  }
  bn_param { frozen: true
    slope_filler {
      value: 1
    }
    bias_filler {
      value: 0
    }
  }
}
layer {
  name: "caffe.ReLU_81"
  type: "ReLU"
  bottom: "caffe.BN_80"
  top: "caffe.BN_80"
}
layer {
  name: "caffe.SpatialConvolution_82"
  type: "Convolution"
  bottom: "caffe.BN_80"
  top: "caffe.SpatialConvolution_82"
  convolution_param {
    num_output: 512
    bias_term: false
    pad_h: 0
    pad_w: 0
    kernel_h: 1
    kernel_w: 1
    stride_h: 1
    stride_w: 1
  }
}
layer {
  name: "caffe.Eltwise_83"
  type: "Eltwise"
  bottom: "caffe.SpatialConvolution_82"
  bottom: "caffe.Eltwise_73"
  top: "caffe.Eltwise_83"
}
layer {
  name: "caffe.BN_84"
  type: "BN"
  bottom: "caffe.Eltwise_83"
  top: "caffe.BN_84"
  param {
    lr_mult: 1
    decay_mult: 0
  }
  param {
    lr_mult: 1
    decay_mult: 0
  }
  bn_param { frozen: true
    slope_filler {
      value: 1
    }
    bias_filler {
      value: 0
    }
  }
}
layer {
  name: "caffe.ReLU_85"
  type: "ReLU"
  bottom: "caffe.BN_84"
  top: "caffe.BN_84"
}
layer {
  name: "caffe.SpatialConvolution_86"
  type: "Convolution"
  bottom: "caffe.BN_84"
  top: "caffe.SpatialConvolution_86"
  convolution_param {
    num_output: 128
    bias_term: false
    pad_h: 0
    pad_w: 0
    kernel_h: 1
    kernel_w: 1
    stride_h: 1
    stride_w: 1
  }
}
layer {
  name: "caffe.BN_87"
  type: "BN"
  bottom: "caffe.SpatialConvolution_86"
  top: "caffe.BN_87"
  param {
    lr_mult: 1
    decay_mult: 0
  }
  param {
    lr_mult: 1
    decay_mult: 0
  }
  bn_param { frozen: true
    slope_filler {
      value: 1
    }
    bias_filler {
      value: 0
    }
  }
}
layer {
  name: "caffe.ReLU_88"
  type: "ReLU"
  bottom: "caffe.BN_87"
  top: "caffe.BN_87"
}
layer {
  name: "caffe.SpatialConvolution_89"
  type: "Convolution"
  bottom: "caffe.BN_87"
  top: "caffe.SpatialConvolution_89"
  convolution_param {
    num_output: 128
    bias_term: false
    pad_h: 1
    pad_w: 1
    kernel_h: 3
    kernel_w: 3
    stride_h: 1
    stride_w: 1
  }
}
layer {
  name: "caffe.BN_90"
  type: "BN"
  bottom: "caffe.SpatialConvolution_89"
  top: "caffe.BN_90"
  param {
    lr_mult: 1
    decay_mult: 0
  }
  param {
    lr_mult: 1
    decay_mult: 0
  }
  bn_param { frozen: true
    slope_filler {
      value: 1
    }
    bias_filler {
      value: 0
    }
  }
}
layer {
  name: "caffe.ReLU_91"
  type: "ReLU"
  bottom: "caffe.BN_90"
  top: "caffe.BN_90"
}
layer {
  name: "caffe.SpatialConvolution_92"
  type: "Convolution"
  bottom: "caffe.BN_90"
  top: "caffe.SpatialConvolution_92"
  convolution_param {
    num_output: 512
    bias_term: false
    pad_h: 0
    pad_w: 0
    kernel_h: 1
    kernel_w: 1
    stride_h: 1
    stride_w: 1
  }
}
layer {
  name: "caffe.Eltwise_93"
  type: "Eltwise"
  bottom: "caffe.SpatialConvolution_92"
  bottom: "caffe.Eltwise_83"
  top: "caffe.Eltwise_93"
}
layer {
  name: "caffe.BN_94"
  type: "BN"
  bottom: "caffe.Eltwise_93"
  top: "caffe.BN_94"
  param {
    lr_mult: 1
    decay_mult: 0
  }
  param {
    lr_mult: 1
    decay_mult: 0
  }
  bn_param { frozen: true
    slope_filler {
      value: 1
    }
    bias_filler {
      value: 0
    }
  }
}
layer {
  name: "caffe.ReLU_95"
  type: "ReLU"
  bottom: "caffe.BN_94"
  top: "caffe.BN_94"
}
layer {
  name: "caffe.SpatialConvolution_96"
  type: "Convolution"
  bottom: "caffe.BN_94"
  top: "caffe.SpatialConvolution_96"
  convolution_param {
    num_output: 128
    bias_term: false
    pad_h: 0
    pad_w: 0
    kernel_h: 1
    kernel_w: 1
    stride_h: 1
    stride_w: 1
  }
}
layer {
  name: "caffe.BN_97"
  type: "BN"
  bottom: "caffe.SpatialConvolution_96"
  top: "caffe.BN_97"
  param {
    lr_mult: 1
    decay_mult: 0
  }
  param {
    lr_mult: 1
    decay_mult: 0
  }
  bn_param { frozen: true
    slope_filler {
      value: 1
    }
    bias_filler {
      value: 0
    }
  }
}
layer {
  name: "caffe.ReLU_98"
  type: "ReLU"
  bottom: "caffe.BN_97"
  top: "caffe.BN_97"
}
layer {
  name: "caffe.SpatialConvolution_99"
  type: "Convolution"
  bottom: "caffe.BN_97"
  top: "caffe.SpatialConvolution_99"
  convolution_param {
    num_output: 128
    bias_term: false
    pad_h: 1
    pad_w: 1
    kernel_h: 3
    kernel_w: 3
    stride_h: 1
    stride_w: 1
  }
}
layer {
  name: "caffe.BN_100"
  type: "BN"
  bottom: "caffe.SpatialConvolution_99"
  top: "caffe.BN_100"
  param {
    lr_mult: 1
    decay_mult: 0
  }
  param {
    lr_mult: 1
    decay_mult: 0
  }
  bn_param { frozen: true
    slope_filler {
      value: 1
    }
    bias_filler {
      value: 0
    }
  }
}
layer {
  name: "caffe.ReLU_101"
  type: "ReLU"
  bottom: "caffe.BN_100"
  top: "caffe.BN_100"
}
layer {
  name: "caffe.SpatialConvolution_102"
  type: "Convolution"
  bottom: "caffe.BN_100"
  top: "caffe.SpatialConvolution_102"
  convolution_param {
    num_output: 512
    bias_term: false
    pad_h: 0
    pad_w: 0
    kernel_h: 1
    kernel_w: 1
    stride_h: 1
    stride_w: 1
  }
}
layer {
  name: "caffe.Eltwise_103"
  type: "Eltwise"
  bottom: "caffe.SpatialConvolution_102"
  bottom: "caffe.Eltwise_93"
  top: "caffe.Eltwise_103"
}
layer {
  name: "caffe.BN_104"
  type: "BN"
  bottom: "caffe.Eltwise_103"
  top: "caffe.BN_104"
  param {
    lr_mult: 1
    decay_mult: 0
  }
  param {
    lr_mult: 1
    decay_mult: 0
  }
  bn_param { frozen: true
    slope_filler {
      value: 1
    }
    bias_filler {
      value: 0
    }
  }
}
layer {
  name: "caffe.ReLU_105"
  type: "ReLU"
  bottom: "caffe.BN_104"
  top: "caffe.BN_104"
}
layer {
  name: "caffe.SpatialConvolution_106"
  type: "Convolution"
  bottom: "caffe.BN_104"
  top: "caffe.SpatialConvolution_106"
  convolution_param {
    num_output: 128
    bias_term: false
    pad_h: 0
    pad_w: 0
    kernel_h: 1
    kernel_w: 1
    stride_h: 1
    stride_w: 1
  }
}
layer {
  name: "caffe.BN_107"
  type: "BN"
  bottom: "caffe.SpatialConvolution_106"
  top: "caffe.BN_107"
  param {
    lr_mult: 1
    decay_mult: 0
  }
  param {
    lr_mult: 1
    decay_mult: 0
  }
  bn_param { frozen: true
    slope_filler {
      value: 1
    }
    bias_filler {
      value: 0
    }
  }
}
layer {
  name: "caffe.ReLU_108"
  type: "ReLU"
  bottom: "caffe.BN_107"
  top: "caffe.BN_107"
}
layer {
  name: "caffe.SpatialConvolution_109"
  type: "Convolution"
  bottom: "caffe.BN_107"
  top: "caffe.SpatialConvolution_109"
  convolution_param {
    num_output: 128
    bias_term: false
    pad_h: 1
    pad_w: 1
    kernel_h: 3
    kernel_w: 3
    stride_h: 1
    stride_w: 1
  }
}
layer {
  name: "caffe.BN_110"
  type: "BN"
  bottom: "caffe.SpatialConvolution_109"
  top: "caffe.BN_110"
  param {
    lr_mult: 1
    decay_mult: 0
  }
  param {
    lr_mult: 1
    decay_mult: 0
  }
  bn_param { frozen: true
    slope_filler {
      value: 1
    }
    bias_filler {
      value: 0
    }
  }
}
layer {
  name: "caffe.ReLU_111"
  type: "ReLU"
  bottom: "caffe.BN_110"
  top: "caffe.BN_110"
}
layer {
  name: "caffe.SpatialConvolution_112"
  type: "Convolution"
  bottom: "caffe.BN_110"
  top: "caffe.SpatialConvolution_112"
  convolution_param {
    num_output: 512
    bias_term: false
    pad_h: 0
    pad_w: 0
    kernel_h: 1
    kernel_w: 1
    stride_h: 1
    stride_w: 1
  }
}
layer {
  name: "caffe.Eltwise_113"
  type: "Eltwise"
  bottom: "caffe.SpatialConvolution_112"
  bottom: "caffe.Eltwise_103"
  top: "caffe.Eltwise_113"
}
layer {
  name: "caffe.BN_114"
  type: "BN"
  bottom: "caffe.Eltwise_113"
  top: "caffe.BN_114"
  param {
    lr_mult: 1
    decay_mult: 0
  }
  param {
    lr_mult: 1
    decay_mult: 0
  }
  bn_param { frozen: true
    slope_filler {
      value: 1
    }
    bias_filler {
      value: 0
    }
  }
}
layer {
  name: "caffe.ReLU_115"
  type: "ReLU"
  bottom: "caffe.BN_114"
  top: "caffe.BN_114"
}
layer {
  name: "caffe.SpatialConvolution_116"
  type: "Convolution"
  bottom: "caffe.BN_114"
  top: "caffe.SpatialConvolution_116"
  convolution_param {
    num_output: 128
    bias_term: false
    pad_h: 0
    pad_w: 0
    kernel_h: 1
    kernel_w: 1
    stride_h: 1
    stride_w: 1
  }
}
layer {
  name: "caffe.BN_117"
  type: "BN"
  bottom: "caffe.SpatialConvolution_116"
  top: "caffe.BN_117"
  param {
    lr_mult: 1
    decay_mult: 0
  }
  param {
    lr_mult: 1
    decay_mult: 0
  }
  bn_param { frozen: true
    slope_filler {
      value: 1
    }
    bias_filler {
      value: 0
    }
  }
}
layer {
  name: "caffe.ReLU_118"
  type: "ReLU"
  bottom: "caffe.BN_117"
  top: "caffe.BN_117"
}
layer {
  name: "caffe.SpatialConvolution_119"
  type: "Convolution"
  bottom: "caffe.BN_117"
  top: "caffe.SpatialConvolution_119"
  convolution_param {
    num_output: 128
    bias_term: false
    pad_h: 1
    pad_w: 1
    kernel_h: 3
    kernel_w: 3
    stride_h: 1
    stride_w: 1
  }
}
layer {
  name: "caffe.BN_120"
  type: "BN"
  bottom: "caffe.SpatialConvolution_119"
  top: "caffe.BN_120"
  param {
    lr_mult: 1
    decay_mult: 0
  }
  param {
    lr_mult: 1
    decay_mult: 0
  }
  bn_param { frozen: true
    slope_filler {
      value: 1
    }
    bias_filler {
      value: 0
    }
  }
}
layer {
  name: "caffe.ReLU_121"
  type: "ReLU"
  bottom: "caffe.BN_120"
  top: "caffe.BN_120"
}
layer {
  name: "caffe.SpatialConvolution_122"
  type: "Convolution"
  bottom: "caffe.BN_120"
  top: "caffe.SpatialConvolution_122"
  convolution_param {
    num_output: 512
    bias_term: false
    pad_h: 0
    pad_w: 0
    kernel_h: 1
    kernel_w: 1
    stride_h: 1
    stride_w: 1
  }
}
layer {
  name: "caffe.Eltwise_123"
  type: "Eltwise"
  bottom: "caffe.SpatialConvolution_122"
  bottom: "caffe.Eltwise_113"
  top: "caffe.Eltwise_123"
}
layer {
  name: "caffe.BN_124"
  type: "BN"
  bottom: "caffe.Eltwise_123"
  top: "caffe.BN_124"
  param {
    lr_mult: 1
    decay_mult: 0
  }
  param {
    lr_mult: 1
    decay_mult: 0
  }
  bn_param { frozen: true
    slope_filler {
      value: 1
    }
    bias_filler {
      value: 0
    }
  }
}
layer {
  name: "caffe.ReLU_125"
  type: "ReLU"
  bottom: "caffe.BN_124"
  top: "caffe.BN_124"
}
layer {
  name: "caffe.SpatialConvolution_126"
  type: "Convolution"
  bottom: "caffe.BN_124"
  top: "caffe.SpatialConvolution_126"
  convolution_param {
    num_output: 128
    bias_term: false
    pad_h: 0
    pad_w: 0
    kernel_h: 1
    kernel_w: 1
    stride_h: 1
    stride_w: 1
  }
}
layer {
  name: "caffe.BN_127"
  type: "BN"
  bottom: "caffe.SpatialConvolution_126"
  top: "caffe.BN_127"
  param {
    lr_mult: 1
    decay_mult: 0
  }
  param {
    lr_mult: 1
    decay_mult: 0
  }
  bn_param { frozen: true
    slope_filler {
      value: 1
    }
    bias_filler {
      value: 0
    }
  }
}
layer {
  name: "caffe.ReLU_128"
  type: "ReLU"
  bottom: "caffe.BN_127"
  top: "caffe.BN_127"
}
layer {
  name: "caffe.SpatialConvolution_129"
  type: "Convolution"
  bottom: "caffe.BN_127"
  top: "caffe.SpatialConvolution_129"
  convolution_param {
    num_output: 128
    bias_term: false
    pad_h: 1
    pad_w: 1
    kernel_h: 3
    kernel_w: 3
    stride_h: 1
    stride_w: 1
  }
}
layer {
  name: "caffe.BN_130"
  type: "BN"
  bottom: "caffe.SpatialConvolution_129"
  top: "caffe.BN_130"
  param {
    lr_mult: 1
    decay_mult: 0
  }
  param {
    lr_mult: 1
    decay_mult: 0
  }
  bn_param { frozen: true
    slope_filler {
      value: 1
    }
    bias_filler {
      value: 0
    }
  }
}
layer {
  name: "caffe.ReLU_131"
  type: "ReLU"
  bottom: "caffe.BN_130"
  top: "caffe.BN_130"
}
layer {
  name: "caffe.SpatialConvolution_132"
  type: "Convolution"
  bottom: "caffe.BN_130"
  top: "caffe.SpatialConvolution_132"
  convolution_param {
    num_output: 512
    bias_term: false
    pad_h: 0
    pad_w: 0
    kernel_h: 1
    kernel_w: 1
    stride_h: 1
    stride_w: 1
  }
}
layer {
  name: "caffe.Eltwise_133"
  type: "Eltwise"
  bottom: "caffe.SpatialConvolution_132"
  bottom: "caffe.Eltwise_123"
  top: "caffe.Eltwise_133"
}
layer {
  name: "caffe.BN_134"
  type: "BN"
  bottom: "caffe.Eltwise_133"
  top: "caffe.BN_134"
  param {
    lr_mult: 1
    decay_mult: 0
  }
  param {
    lr_mult: 1
    decay_mult: 0
  }
  bn_param { frozen: true
    slope_filler {
      value: 1
    }
    bias_filler {
      value: 0
    }
  }
}
layer {
  name: "caffe.ReLU_135"
  type: "ReLU"
  bottom: "caffe.BN_134"
  top: "caffe.BN_134"
}
layer {
  name: "caffe.SpatialConvolution_136"
  type: "Convolution"
  bottom: "caffe.BN_134"
  top: "caffe.SpatialConvolution_136"
  convolution_param {
    num_output: 128
    bias_term: false
    pad_h: 0
    pad_w: 0
    kernel_h: 1
    kernel_w: 1
    stride_h: 1
    stride_w: 1
  }
}
layer {
  name: "caffe.BN_137"
  type: "BN"
  bottom: "caffe.SpatialConvolution_136"
  top: "caffe.BN_137"
  param {
    lr_mult: 1
    decay_mult: 0
  }
  param {
    lr_mult: 1
    decay_mult: 0
  }
  bn_param { frozen: true
    slope_filler {
      value: 1
    }
    bias_filler {
      value: 0
    }
  }
}
layer {
  name: "caffe.ReLU_138"
  type: "ReLU"
  bottom: "caffe.BN_137"
  top: "caffe.BN_137"
}
layer {
  name: "caffe.SpatialConvolution_139"
  type: "Convolution"
  bottom: "caffe.BN_137"
  top: "caffe.SpatialConvolution_139"
  convolution_param {
    num_output: 128
    bias_term: false
    pad_h: 1
    pad_w: 1
    kernel_h: 3
    kernel_w: 3
    stride_h: 1
    stride_w: 1
  }
}
layer {
  name: "caffe.BN_140"
  type: "BN"
  bottom: "caffe.SpatialConvolution_139"
  top: "caffe.BN_140"
  param {
    lr_mult: 1
    decay_mult: 0
  }
  param {
    lr_mult: 1
    decay_mult: 0
  }
  bn_param { frozen: true
    slope_filler {
      value: 1
    }
    bias_filler {
      value: 0
    }
  }
}
layer {
  name: "caffe.ReLU_141"
  type: "ReLU"
  bottom: "caffe.BN_140"
  top: "caffe.BN_140"
}
layer {
  name: "caffe.SpatialConvolution_142"
  type: "Convolution"
  bottom: "caffe.BN_140"
  top: "caffe.SpatialConvolution_142"
  convolution_param {
    num_output: 512
    bias_term: false
    pad_h: 0
    pad_w: 0
    kernel_h: 1
    kernel_w: 1
    stride_h: 1
    stride_w: 1
  }
}
layer {
  name: "caffe.Eltwise_143"
  type: "Eltwise"
  bottom: "caffe.SpatialConvolution_142"
  bottom: "caffe.Eltwise_133"
  top: "caffe.Eltwise_143"
}
layer {
  name: "caffe.BN_144"
  type: "BN"
  bottom: "caffe.Eltwise_143"
  top: "caffe.BN_144"
  param {
    lr_mult: 1
    decay_mult: 0
  }
  param {
    lr_mult: 1
    decay_mult: 0
  }
  bn_param { frozen: true
    slope_filler {
      value: 1
    }
    bias_filler {
      value: 0
    }
  }
}
layer {
  name: "caffe.ReLU_145"
  type: "ReLU"
  bottom: "caffe.BN_144"
  top: "caffe.BN_144"
}
layer {
  name: "caffe.SpatialConvolution_146"
  type: "Convolution"
  bottom: "caffe.BN_144"
  top: "caffe.SpatialConvolution_146"
  convolution_param {
    num_output: 128
    bias_term: false
    pad_h: 0
    pad_w: 0
    kernel_h: 1
    kernel_w: 1
    stride_h: 1
    stride_w: 1
  }
}
layer {
  name: "caffe.BN_147"
  type: "BN"
  bottom: "caffe.SpatialConvolution_146"
  top: "caffe.BN_147"
  param {
    lr_mult: 1
    decay_mult: 0
  }
  param {
    lr_mult: 1
    decay_mult: 0
  }
  bn_param { frozen: true
    slope_filler {
      value: 1
    }
    bias_filler {
      value: 0
    }
  }
}
layer {
  name: "caffe.ReLU_148"
  type: "ReLU"
  bottom: "caffe.BN_147"
  top: "caffe.BN_147"
}
layer {
  name: "caffe.SpatialConvolution_149"
  type: "Convolution"
  bottom: "caffe.BN_147"
  top: "caffe.SpatialConvolution_149"
  convolution_param {
    num_output: 128
    bias_term: false
    pad_h: 1
    pad_w: 1
    kernel_h: 3
    kernel_w: 3
    stride_h: 1
    stride_w: 1
  }
}
layer {
  name: "caffe.BN_150"
  type: "BN"
  bottom: "caffe.SpatialConvolution_149"
  top: "caffe.BN_150"
  param {
    lr_mult: 1
    decay_mult: 0
  }
  param {
    lr_mult: 1
    decay_mult: 0
  }
  bn_param { frozen: true
    slope_filler {
      value: 1
    }
    bias_filler {
      value: 0
    }
  }
}
layer {
  name: "caffe.ReLU_151"
  type: "ReLU"
  bottom: "caffe.BN_150"
  top: "caffe.BN_150"
}
layer {
  name: "caffe.SpatialConvolution_152"
  type: "Convolution"
  bottom: "caffe.BN_150"
  top: "caffe.SpatialConvolution_152"
  convolution_param {
    num_output: 512
    bias_term: false
    pad_h: 0
    pad_w: 0
    kernel_h: 1
    kernel_w: 1
    stride_h: 1
    stride_w: 1
  }
}
layer {
  name: "caffe.Eltwise_153"
  type: "Eltwise"
  bottom: "caffe.SpatialConvolution_152"
  bottom: "caffe.Eltwise_143"
  top: "caffe.Eltwise_153"
}
layer {
  name: "caffe.BN_154"
  type: "BN"
  bottom: "caffe.Eltwise_153"
  top: "caffe.BN_154"
  param {
    lr_mult: 1
    decay_mult: 0
  }
  param {
    lr_mult: 1
    decay_mult: 0
  }
  bn_param { frozen: true
    slope_filler {
      value: 1
    }
    bias_filler {
      value: 0
    }
  }
}
layer {
  name: "caffe.ReLU_155"
  type: "ReLU"
  bottom: "caffe.BN_154"
  top: "caffe.BN_154"
}
layer {
  name: "caffe.SpatialConvolution_156"
  type: "Convolution"
  bottom: "caffe.BN_154"
  top: "caffe.SpatialConvolution_156"
  convolution_param {
    num_output: 128
    bias_term: false
    pad_h: 0
    pad_w: 0
    kernel_h: 1
    kernel_w: 1
    stride_h: 1
    stride_w: 1
  }
}
layer {
  name: "caffe.BN_157"
  type: "BN"
  bottom: "caffe.SpatialConvolution_156"
  top: "caffe.BN_157"
  param {
    lr_mult: 1
    decay_mult: 0
  }
  param {
    lr_mult: 1
    decay_mult: 0
  }
  bn_param { frozen: true
    slope_filler {
      value: 1
    }
    bias_filler {
      value: 0
    }
  }
}
layer {
  name: "caffe.ReLU_158"
  type: "ReLU"
  bottom: "caffe.BN_157"
  top: "caffe.BN_157"
}
layer {
  name: "caffe.SpatialConvolution_159"
  type: "Convolution"
  bottom: "caffe.BN_157"
  top: "caffe.SpatialConvolution_159"
  convolution_param {
    num_output: 128
    bias_term: false
    pad_h: 1
    pad_w: 1
    kernel_h: 3
    kernel_w: 3
    stride_h: 1
    stride_w: 1
  }
}
layer {
  name: "caffe.BN_160"
  type: "BN"
  bottom: "caffe.SpatialConvolution_159"
  top: "caffe.BN_160"
  param {
    lr_mult: 1
    decay_mult: 0
  }
  param {
    lr_mult: 1
    decay_mult: 0
  }
  bn_param { frozen: true
    slope_filler {
      value: 1
    }
    bias_filler {
      value: 0
    }
  }
}
layer {
  name: "caffe.ReLU_161"
  type: "ReLU"
  bottom: "caffe.BN_160"
  top: "caffe.BN_160"
}
layer {
  name: "caffe.SpatialConvolution_162"
  type: "Convolution"
  bottom: "caffe.BN_160"
  top: "caffe.SpatialConvolution_162"
  convolution_param {
    num_output: 512
    bias_term: false
    pad_h: 0
    pad_w: 0
    kernel_h: 1
    kernel_w: 1
    stride_h: 1
    stride_w: 1
  }
}
layer {
  name: "caffe.Eltwise_163"
  type: "Eltwise"
  bottom: "caffe.SpatialConvolution_162"
  bottom: "caffe.Eltwise_153"
  top: "caffe.Eltwise_163"
}
layer {
  name: "caffe.BN_164"
  type: "BN"
  bottom: "caffe.Eltwise_163"
  top: "caffe.BN_164"
  param {
    lr_mult: 1
    decay_mult: 0
  }
  param {
    lr_mult: 1
    decay_mult: 0
  }
  bn_param { frozen: true
    slope_filler {
      value: 1
    }
    bias_filler {
      value: 0
    }
  }
}
layer {
  name: "caffe.ReLU_165"
  type: "ReLU"
  bottom: "caffe.BN_164"
  top: "caffe.BN_164"
}
layer {
  name: "caffe.SpatialConvolution_166"
  type: "Convolution"
  bottom: "caffe.BN_164"
  top: "caffe.SpatialConvolution_166"
  convolution_param {
    num_output: 128
    bias_term: false
    pad_h: 0
    pad_w: 0
    kernel_h: 1
    kernel_w: 1
    stride_h: 1
    stride_w: 1
  }
}
layer {
  name: "caffe.BN_167"
  type: "BN"
  bottom: "caffe.SpatialConvolution_166"
  top: "caffe.BN_167"
  param {
    lr_mult: 1
    decay_mult: 0
  }
  param {
    lr_mult: 1
    decay_mult: 0
  }
  bn_param { frozen: true
    slope_filler {
      value: 1
    }
    bias_filler {
      value: 0
    }
  }
}
layer {
  name: "caffe.ReLU_168"
  type: "ReLU"
  bottom: "caffe.BN_167"
  top: "caffe.BN_167"
}
layer {
  name: "caffe.SpatialConvolution_169"
  type: "Convolution"
  bottom: "caffe.BN_167"
  top: "caffe.SpatialConvolution_169"
  convolution_param {
    num_output: 128
    bias_term: false
    pad_h: 1
    pad_w: 1
    kernel_h: 3
    kernel_w: 3
    stride_h: 1
    stride_w: 1
  }
}
layer {
  name: "caffe.BN_170"
  type: "BN"
  bottom: "caffe.SpatialConvolution_169"
  top: "caffe.BN_170"
  param {
    lr_mult: 1
    decay_mult: 0
  }
  param {
    lr_mult: 1
    decay_mult: 0
  }
  bn_param { frozen: true
    slope_filler {
      value: 1
    }
    bias_filler {
      value: 0
    }
  }
}
layer {
  name: "caffe.ReLU_171"
  type: "ReLU"
  bottom: "caffe.BN_170"
  top: "caffe.BN_170"
}
layer {
  name: "caffe.SpatialConvolution_172"
  type: "Convolution"
  bottom: "caffe.BN_170"
  top: "caffe.SpatialConvolution_172"
  convolution_param {
    num_output: 512
    bias_term: false
    pad_h: 0
    pad_w: 0
    kernel_h: 1
    kernel_w: 1
    stride_h: 1
    stride_w: 1
  }
}
layer {
  name: "caffe.Eltwise_173"
  type: "Eltwise"
  bottom: "caffe.SpatialConvolution_172"
  bottom: "caffe.Eltwise_163"
  top: "caffe.Eltwise_173"
}
layer {
  name: "caffe.BN_174"
  type: "BN"
  bottom: "caffe.Eltwise_173"
  top: "caffe.BN_174"
  param {
    lr_mult: 1
    decay_mult: 0
  }
  param {
    lr_mult: 1
    decay_mult: 0
  }
  bn_param { frozen: true
    slope_filler {
      value: 1
    }
    bias_filler {
      value: 0
    }
  }
}
layer {
  name: "caffe.ReLU_175"
  type: "ReLU"
  bottom: "caffe.BN_174"
  top: "caffe.BN_174"
}
layer {
  name: "caffe.SpatialConvolution_176"
  type: "Convolution"
  bottom: "caffe.BN_174"
  top: "caffe.SpatialConvolution_176"
  convolution_param {
    num_output: 128
    bias_term: false
    pad_h: 0
    pad_w: 0
    kernel_h: 1
    kernel_w: 1
    stride_h: 1
    stride_w: 1
  }
}
layer {
  name: "caffe.BN_177"
  type: "BN"
  bottom: "caffe.SpatialConvolution_176"
  top: "caffe.BN_177"
  param {
    lr_mult: 1
    decay_mult: 0
  }
  param {
    lr_mult: 1
    decay_mult: 0
  }
  bn_param { frozen: true
    slope_filler {
      value: 1
    }
    bias_filler {
      value: 0
    }
  }
}
layer {
  name: "caffe.ReLU_178"
  type: "ReLU"
  bottom: "caffe.BN_177"
  top: "caffe.BN_177"
}
layer {
  name: "caffe.SpatialConvolution_179"
  type: "Convolution"
  bottom: "caffe.BN_177"
  top: "caffe.SpatialConvolution_179"
  convolution_param {
    num_output: 128
    bias_term: false
    pad_h: 1
    pad_w: 1
    kernel_h: 3
    kernel_w: 3
    stride_h: 1
    stride_w: 1
  }
}
layer {
  name: "caffe.BN_180"
  type: "BN"
  bottom: "caffe.SpatialConvolution_179"
  top: "caffe.BN_180"
  param {
    lr_mult: 1
    decay_mult: 0
  }
  param {
    lr_mult: 1
    decay_mult: 0
  }
  bn_param { frozen: true
    slope_filler {
      value: 1
    }
    bias_filler {
      value: 0
    }
  }
}
layer {
  name: "caffe.ReLU_181"
  type: "ReLU"
  bottom: "caffe.BN_180"
  top: "caffe.BN_180"
}
layer {
  name: "caffe.SpatialConvolution_182"
  type: "Convolution"
  bottom: "caffe.BN_180"
  top: "caffe.SpatialConvolution_182"
  convolution_param {
    num_output: 512
    bias_term: false
    pad_h: 0
    pad_w: 0
    kernel_h: 1
    kernel_w: 1
    stride_h: 1
    stride_w: 1
  }
}
layer {
  name: "caffe.Eltwise_183"
  type: "Eltwise"
  bottom: "caffe.SpatialConvolution_182"
  bottom: "caffe.Eltwise_173"
  top: "caffe.Eltwise_183"
}
layer {
  name: "caffe.BN_184"
  type: "BN"
  bottom: "caffe.Eltwise_183"
  top: "caffe.BN_184"
  param {
    lr_mult: 1
    decay_mult: 0
  }
  param {
    lr_mult: 1
    decay_mult: 0
  }
  bn_param { frozen: true
    slope_filler {
      value: 1
    }
    bias_filler {
      value: 0
    }
  }
}
layer {
  name: "caffe.ReLU_185"
  type: "ReLU"
  bottom: "caffe.BN_184"
  top: "caffe.BN_184"
}
layer {
  name: "caffe.SpatialConvolution_186"
  type: "Convolution"
  bottom: "caffe.BN_184"
  top: "caffe.SpatialConvolution_186"
  convolution_param {
    num_output: 128
    bias_term: false
    pad_h: 0
    pad_w: 0
    kernel_h: 1
    kernel_w: 1
    stride_h: 1
    stride_w: 1
  }
}
layer {
  name: "caffe.BN_187"
  type: "BN"
  bottom: "caffe.SpatialConvolution_186"
  top: "caffe.BN_187"
  param {
    lr_mult: 1
    decay_mult: 0
  }
  param {
    lr_mult: 1
    decay_mult: 0
  }
  bn_param { frozen: true
    slope_filler {
      value: 1
    }
    bias_filler {
      value: 0
    }
  }
}
layer {
  name: "caffe.ReLU_188"
  type: "ReLU"
  bottom: "caffe.BN_187"
  top: "caffe.BN_187"
}
layer {
  name: "caffe.SpatialConvolution_189"
  type: "Convolution"
  bottom: "caffe.BN_187"
  top: "caffe.SpatialConvolution_189"
  convolution_param {
    num_output: 128
    bias_term: false
    pad_h: 1
    pad_w: 1
    kernel_h: 3
    kernel_w: 3
    stride_h: 1
    stride_w: 1
  }
}
layer {
  name: "caffe.BN_190"
  type: "BN"
  bottom: "caffe.SpatialConvolution_189"
  top: "caffe.BN_190"
  param {
    lr_mult: 1
    decay_mult: 0
  }
  param {
    lr_mult: 1
    decay_mult: 0
  }
  bn_param { frozen: true
    slope_filler {
      value: 1
    }
    bias_filler {
      value: 0
    }
  }
}
layer {
  name: "caffe.ReLU_191"
  type: "ReLU"
  bottom: "caffe.BN_190"
  top: "caffe.BN_190"
}
layer {
  name: "caffe.SpatialConvolution_192"
  type: "Convolution"
  bottom: "caffe.BN_190"
  top: "caffe.SpatialConvolution_192"
  convolution_param {
    num_output: 512
    bias_term: false
    pad_h: 0
    pad_w: 0
    kernel_h: 1
    kernel_w: 1
    stride_h: 1
    stride_w: 1
  }
}
layer {
  name: "caffe.Eltwise_193"
  type: "Eltwise"
  bottom: "caffe.SpatialConvolution_192"
  bottom: "caffe.Eltwise_183"
  top: "caffe.Eltwise_193"
}
layer {
  name: "caffe.BN_194"
  type: "BN"
  bottom: "caffe.Eltwise_193"
  top: "caffe.BN_194"
  param {
    lr_mult: 1
    decay_mult: 0
  }
  param {
    lr_mult: 1
    decay_mult: 0
  }
  bn_param { frozen: true
    slope_filler {
      value: 1
    }
    bias_filler {
      value: 0
    }
  }
}
layer {
  name: "caffe.ReLU_195"
  type: "ReLU"
  bottom: "caffe.BN_194"
  top: "caffe.BN_194"
}
layer {
  name: "caffe.SpatialConvolution_196"
  type: "Convolution"
  bottom: "caffe.BN_194"
  top: "caffe.SpatialConvolution_196"
  convolution_param {
    num_output: 128
    bias_term: false
    pad_h: 0
    pad_w: 0
    kernel_h: 1
    kernel_w: 1
    stride_h: 1
    stride_w: 1
  }
}
layer {
  name: "caffe.BN_197"
  type: "BN"
  bottom: "caffe.SpatialConvolution_196"
  top: "caffe.BN_197"
  param {
    lr_mult: 1
    decay_mult: 0
  }
  param {
    lr_mult: 1
    decay_mult: 0
  }
  bn_param { frozen: true
    slope_filler {
      value: 1
    }
    bias_filler {
      value: 0
    }
  }
}
layer {
  name: "caffe.ReLU_198"
  type: "ReLU"
  bottom: "caffe.BN_197"
  top: "caffe.BN_197"
}
layer {
  name: "caffe.SpatialConvolution_199"
  type: "Convolution"
  bottom: "caffe.BN_197"
  top: "caffe.SpatialConvolution_199"
  convolution_param {
    num_output: 128
    bias_term: false
    pad_h: 1
    pad_w: 1
    kernel_h: 3
    kernel_w: 3
    stride_h: 1
    stride_w: 1
  }
}
layer {
  name: "caffe.BN_200"
  type: "BN"
  bottom: "caffe.SpatialConvolution_199"
  top: "caffe.BN_200"
  param {
    lr_mult: 1
    decay_mult: 0
  }
  param {
    lr_mult: 1
    decay_mult: 0
  }
  bn_param { frozen: true
    slope_filler {
      value: 1
    }
    bias_filler {
      value: 0
    }
  }
}
layer {
  name: "caffe.ReLU_201"
  type: "ReLU"
  bottom: "caffe.BN_200"
  top: "caffe.BN_200"
}
layer {
  name: "caffe.SpatialConvolution_202"
  type: "Convolution"
  bottom: "caffe.BN_200"
  top: "caffe.SpatialConvolution_202"
  convolution_param {
    num_output: 512
    bias_term: false
    pad_h: 0
    pad_w: 0
    kernel_h: 1
    kernel_w: 1
    stride_h: 1
    stride_w: 1
  }
}
layer {
  name: "caffe.Eltwise_203"
  type: "Eltwise"
  bottom: "caffe.SpatialConvolution_202"
  bottom: "caffe.Eltwise_193"
  top: "caffe.Eltwise_203"
}
layer {
  name: "caffe.BN_204"
  type: "BN"
  bottom: "caffe.Eltwise_203"
  top: "caffe.BN_204"
  param {
    lr_mult: 1
    decay_mult: 0
  }
  param {
    lr_mult: 1
    decay_mult: 0
  }
  bn_param { frozen: true
    slope_filler {
      value: 1
    }
    bias_filler {
      value: 0
    }
  }
}
layer {
  name: "caffe.ReLU_205"
  type: "ReLU"
  bottom: "caffe.BN_204"
  top: "caffe.BN_204"
}
layer {
  name: "caffe.SpatialConvolution_206"
  type: "Convolution"
  bottom: "caffe.BN_204"
  top: "caffe.SpatialConvolution_206"
  convolution_param {
    num_output: 128
    bias_term: false
    pad_h: 0
    pad_w: 0
    kernel_h: 1
    kernel_w: 1
    stride_h: 1
    stride_w: 1
  }
}
layer {
  name: "caffe.BN_207"
  type: "BN"
  bottom: "caffe.SpatialConvolution_206"
  top: "caffe.BN_207"
  param {
    lr_mult: 1
    decay_mult: 0
  }
  param {
    lr_mult: 1
    decay_mult: 0
  }
  bn_param { frozen: true
    slope_filler {
      value: 1
    }
    bias_filler {
      value: 0
    }
  }
}
layer {
  name: "caffe.ReLU_208"
  type: "ReLU"
  bottom: "caffe.BN_207"
  top: "caffe.BN_207"
}
layer {
  name: "caffe.SpatialConvolution_209"
  type: "Convolution"
  bottom: "caffe.BN_207"
  top: "caffe.SpatialConvolution_209"
  convolution_param {
    num_output: 128
    bias_term: false
    pad_h: 1
    pad_w: 1
    kernel_h: 3
    kernel_w: 3
    stride_h: 1
    stride_w: 1
  }
}
layer {
  name: "caffe.BN_210"
  type: "BN"
  bottom: "caffe.SpatialConvolution_209"
  top: "caffe.BN_210"
  param {
    lr_mult: 1
    decay_mult: 0
  }
  param {
    lr_mult: 1
    decay_mult: 0
  }
  bn_param { frozen: true
    slope_filler {
      value: 1
    }
    bias_filler {
      value: 0
    }
  }
}
layer {
  name: "caffe.ReLU_211"
  type: "ReLU"
  bottom: "caffe.BN_210"
  top: "caffe.BN_210"
}
layer {
  name: "caffe.SpatialConvolution_212"
  type: "Convolution"
  bottom: "caffe.BN_210"
  top: "caffe.SpatialConvolution_212"
  convolution_param {
    num_output: 512
    bias_term: false
    pad_h: 0
    pad_w: 0
    kernel_h: 1
    kernel_w: 1
    stride_h: 1
    stride_w: 1
  }
}
layer {
  name: "caffe.Eltwise_213"
  type: "Eltwise"
  bottom: "caffe.SpatialConvolution_212"
  bottom: "caffe.Eltwise_203"
  top: "caffe.Eltwise_213"
}
layer {
  name: "caffe.BN_214"
  type: "BN"
  bottom: "caffe.Eltwise_213"
  top: "caffe.BN_214"
  param {
    lr_mult: 1
    decay_mult: 0
  }
  param {
    lr_mult: 1
    decay_mult: 0
  }
  bn_param { frozen: true
    slope_filler {
      value: 1
    }
    bias_filler {
      value: 0
    }
  }
}
layer {
  name: "caffe.ReLU_215"
  type: "ReLU"
  bottom: "caffe.BN_214"
  top: "caffe.BN_214"
}
layer {
  name: "caffe.SpatialConvolution_216"
  type: "Convolution"
  bottom: "caffe.BN_214"
  top: "caffe.SpatialConvolution_216"
  convolution_param {
    num_output: 128
    bias_term: false
    pad_h: 0
    pad_w: 0
    kernel_h: 1
    kernel_w: 1
    stride_h: 1
    stride_w: 1
  }
}
layer {
  name: "caffe.BN_217"
  type: "BN"
  bottom: "caffe.SpatialConvolution_216"
  top: "caffe.BN_217"
  param {
    lr_mult: 1
    decay_mult: 0
  }
  param {
    lr_mult: 1
    decay_mult: 0
  }
  bn_param { frozen: true
    slope_filler {
      value: 1
    }
    bias_filler {
      value: 0
    }
  }
}
layer {
  name: "caffe.ReLU_218"
  type: "ReLU"
  bottom: "caffe.BN_217"
  top: "caffe.BN_217"
}
layer {
  name: "caffe.SpatialConvolution_219"
  type: "Convolution"
  bottom: "caffe.BN_217"
  top: "caffe.SpatialConvolution_219"
  convolution_param {
    num_output: 128
    bias_term: false
    pad_h: 1
    pad_w: 1
    kernel_h: 3
    kernel_w: 3
    stride_h: 1
    stride_w: 1
  }
}
layer {
  name: "caffe.BN_220"
  type: "BN"
  bottom: "caffe.SpatialConvolution_219"
  top: "caffe.BN_220"
  param {
    lr_mult: 1
    decay_mult: 0
  }
  param {
    lr_mult: 1
    decay_mult: 0
  }
  bn_param { frozen: true
    slope_filler {
      value: 1
    }
    bias_filler {
      value: 0
    }
  }
}
layer {
  name: "caffe.ReLU_221"
  type: "ReLU"
  bottom: "caffe.BN_220"
  top: "caffe.BN_220"
}
layer {
  name: "caffe.SpatialConvolution_222"
  type: "Convolution"
  bottom: "caffe.BN_220"
  top: "caffe.SpatialConvolution_222"
  convolution_param {
    num_output: 512
    bias_term: false
    pad_h: 0
    pad_w: 0
    kernel_h: 1
    kernel_w: 1
    stride_h: 1
    stride_w: 1
  }
}
layer {
  name: "caffe.Eltwise_223"
  type: "Eltwise"
  bottom: "caffe.SpatialConvolution_222"
  bottom: "caffe.Eltwise_213"
  top: "caffe.Eltwise_223"
}
layer {
  name: "caffe.BN_224"
  type: "BN"
  bottom: "caffe.Eltwise_223"
  top: "caffe.BN_224"
  param {
    lr_mult: 1
    decay_mult: 0
  }
  param {
    lr_mult: 1
    decay_mult: 0
  }
  bn_param { frozen: true
    slope_filler {
      value: 1
    }
    bias_filler {
      value: 0
    }
  }
}
layer {
  name: "caffe.ReLU_225"
  type: "ReLU"
  bottom: "caffe.BN_224"
  top: "caffe.BN_224"
}
layer {
  name: "caffe.SpatialConvolution_226"
  type: "Convolution"
  bottom: "caffe.BN_224"
  top: "caffe.SpatialConvolution_226"
  convolution_param {
    num_output: 128
    bias_term: false
    pad_h: 0
    pad_w: 0
    kernel_h: 1
    kernel_w: 1
    stride_h: 1
    stride_w: 1
  }
}
layer {
  name: "caffe.BN_227"
  type: "BN"
  bottom: "caffe.SpatialConvolution_226"
  top: "caffe.BN_227"
  param {
    lr_mult: 1
    decay_mult: 0
  }
  param {
    lr_mult: 1
    decay_mult: 0
  }
  bn_param { frozen: true
    slope_filler {
      value: 1
    }
    bias_filler {
      value: 0
    }
  }
}
layer {
  name: "caffe.ReLU_228"
  type: "ReLU"
  bottom: "caffe.BN_227"
  top: "caffe.BN_227"
}
layer {
  name: "caffe.SpatialConvolution_229"
  type: "Convolution"
  bottom: "caffe.BN_227"
  top: "caffe.SpatialConvolution_229"
  convolution_param {
    num_output: 128
    bias_term: false
    pad_h: 1
    pad_w: 1
    kernel_h: 3
    kernel_w: 3
    stride_h: 1
    stride_w: 1
  }
}
layer {
  name: "caffe.BN_230"
  type: "BN"
  bottom: "caffe.SpatialConvolution_229"
  top: "caffe.BN_230"
  param {
    lr_mult: 1
    decay_mult: 0
  }
  param {
    lr_mult: 1
    decay_mult: 0
  }
  bn_param { frozen: true
    slope_filler {
      value: 1
    }
    bias_filler {
      value: 0
    }
  }
}
layer {
  name: "caffe.ReLU_231"
  type: "ReLU"
  bottom: "caffe.BN_230"
  top: "caffe.BN_230"
}
layer {
  name: "caffe.SpatialConvolution_232"
  type: "Convolution"
  bottom: "caffe.BN_230"
  top: "caffe.SpatialConvolution_232"
  convolution_param {
    num_output: 512
    bias_term: false
    pad_h: 0
    pad_w: 0
    kernel_h: 1
    kernel_w: 1
    stride_h: 1
    stride_w: 1
  }
}
layer {
  name: "caffe.Eltwise_233"
  type: "Eltwise"
  bottom: "caffe.SpatialConvolution_232"
  bottom: "caffe.Eltwise_223"
  top: "caffe.Eltwise_233"
}
layer {
  name: "caffe.BN_234"
  type: "BN"
  bottom: "caffe.Eltwise_233"
  top: "caffe.BN_234"
  param {
    lr_mult: 1
    decay_mult: 0
  }
  param {
    lr_mult: 1
    decay_mult: 0
  }
  bn_param { frozen: true
    slope_filler {
      value: 1
    }
    bias_filler {
      value: 0
    }
  }
}
layer {
  name: "caffe.ReLU_235"
  type: "ReLU"
  bottom: "caffe.BN_234"
  top: "caffe.BN_234"
}
layer {
  name: "caffe.SpatialConvolution_236"
  type: "Convolution"
  bottom: "caffe.BN_234"
  top: "caffe.SpatialConvolution_236"
  convolution_param {
    num_output: 128
    bias_term: false
    pad_h: 0
    pad_w: 0
    kernel_h: 1
    kernel_w: 1
    stride_h: 1
    stride_w: 1
  }
}
layer {
  name: "caffe.BN_237"
  type: "BN"
  bottom: "caffe.SpatialConvolution_236"
  top: "caffe.BN_237"
  param {
    lr_mult: 1
    decay_mult: 0
  }
  param {
    lr_mult: 1
    decay_mult: 0
  }
  bn_param { frozen: true
    slope_filler {
      value: 1
    }
    bias_filler {
      value: 0
    }
  }
}
layer {
  name: "caffe.ReLU_238"
  type: "ReLU"
  bottom: "caffe.BN_237"
  top: "caffe.BN_237"
}
layer {
  name: "caffe.SpatialConvolution_239"
  type: "Convolution"
  bottom: "caffe.BN_237"
  top: "caffe.SpatialConvolution_239"
  convolution_param {
    num_output: 128
    bias_term: false
    pad_h: 1
    pad_w: 1
    kernel_h: 3
    kernel_w: 3
    stride_h: 1
    stride_w: 1
  }
}
layer {
  name: "caffe.BN_240"
  type: "BN"
  bottom: "caffe.SpatialConvolution_239"
  top: "caffe.BN_240"
  param {
    lr_mult: 1
    decay_mult: 0
  }
  param {
    lr_mult: 1
    decay_mult: 0
  }
  bn_param { frozen: true
    slope_filler {
      value: 1
    }
    bias_filler {
      value: 0
    }
  }
}
layer {
  name: "caffe.ReLU_241"
  type: "ReLU"
  bottom: "caffe.BN_240"
  top: "caffe.BN_240"
}
layer {
  name: "caffe.SpatialConvolution_242"
  type: "Convolution"
  bottom: "caffe.BN_240"
  top: "caffe.SpatialConvolution_242"
  convolution_param {
    num_output: 512
    bias_term: false
    pad_h: 0
    pad_w: 0
    kernel_h: 1
    kernel_w: 1
    stride_h: 1
    stride_w: 1
  }
}
layer {
  name: "caffe.Eltwise_243"
  type: "Eltwise"
  bottom: "caffe.SpatialConvolution_242"
  bottom: "caffe.Eltwise_233"
  top: "caffe.Eltwise_243"
}
layer {
  name: "caffe.BN_244"
  type: "BN"
  bottom: "caffe.Eltwise_243"
  top: "caffe.BN_244"
  param {
    lr_mult: 1
    decay_mult: 0
  }
  param {
    lr_mult: 1
    decay_mult: 0
  }
  bn_param { frozen: true
    slope_filler {
      value: 1
    }
    bias_filler {
      value: 0
    }
  }
}
layer {
  name: "caffe.ReLU_245"
  type: "ReLU"
  bottom: "caffe.BN_244"
  top: "caffe.BN_244"
}
layer {
  name: "caffe.SpatialConvolution_246"
  type: "Convolution"
  bottom: "caffe.BN_244"
  top: "caffe.SpatialConvolution_246"
  convolution_param {
    num_output: 128
    bias_term: false
    pad_h: 0
    pad_w: 0
    kernel_h: 1
    kernel_w: 1
    stride_h: 1
    stride_w: 1
  }
}
layer {
  name: "caffe.BN_247"
  type: "BN"
  bottom: "caffe.SpatialConvolution_246"
  top: "caffe.BN_247"
  param {
    lr_mult: 1
    decay_mult: 0
  }
  param {
    lr_mult: 1
    decay_mult: 0
  }
  bn_param { frozen: true
    slope_filler {
      value: 1
    }
    bias_filler {
      value: 0
    }
  }
}
layer {
  name: "caffe.ReLU_248"
  type: "ReLU"
  bottom: "caffe.BN_247"
  top: "caffe.BN_247"
}
layer {
  name: "caffe.SpatialConvolution_249"
  type: "Convolution"
  bottom: "caffe.BN_247"
  top: "caffe.SpatialConvolution_249"
  convolution_param {
    num_output: 128
    bias_term: false
    pad_h: 1
    pad_w: 1
    kernel_h: 3
    kernel_w: 3
    stride_h: 1
    stride_w: 1
  }
}
layer {
  name: "caffe.BN_250"
  type: "BN"
  bottom: "caffe.SpatialConvolution_249"
  top: "caffe.BN_250"
  param {
    lr_mult: 1
    decay_mult: 0
  }
  param {
    lr_mult: 1
    decay_mult: 0
  }
  bn_param { frozen: true
    slope_filler {
      value: 1
    }
    bias_filler {
      value: 0
    }
  }
}
layer {
  name: "caffe.ReLU_251"
  type: "ReLU"
  bottom: "caffe.BN_250"
  top: "caffe.BN_250"
}
layer {
  name: "caffe.SpatialConvolution_252"
  type: "Convolution"
  bottom: "caffe.BN_250"
  top: "caffe.SpatialConvolution_252"
  convolution_param {
    num_output: 512
    bias_term: false
    pad_h: 0
    pad_w: 0
    kernel_h: 1
    kernel_w: 1
    stride_h: 1
    stride_w: 1
  }
}
layer {
  name: "caffe.Eltwise_253"
  type: "Eltwise"
  bottom: "caffe.SpatialConvolution_252"
  bottom: "caffe.Eltwise_243"
  top: "caffe.Eltwise_253"
}
layer {
  name: "caffe.BN_254"
  type: "BN"
  bottom: "caffe.Eltwise_253"
  top: "caffe.BN_254"
  param {
    lr_mult: 1
    decay_mult: 0
  }
  param {
    lr_mult: 1
    decay_mult: 0
  }
  bn_param { frozen: true
    slope_filler {
      value: 1
    }
    bias_filler {
      value: 0
    }
  }
}
layer {
  name: "caffe.ReLU_255"
  type: "ReLU"
  bottom: "caffe.BN_254"
  top: "caffe.BN_254"
}
layer {
  name: "caffe.SpatialConvolution_256"
  type: "Convolution"
  bottom: "caffe.BN_254"
  top: "caffe.SpatialConvolution_256"
  convolution_param {
    num_output: 128
    bias_term: false
    pad_h: 0
    pad_w: 0
    kernel_h: 1
    kernel_w: 1
    stride_h: 1
    stride_w: 1
  }
}
layer {
  name: "caffe.BN_257"
  type: "BN"
  bottom: "caffe.SpatialConvolution_256"
  top: "caffe.BN_257"
  param {
    lr_mult: 1
    decay_mult: 0
  }
  param {
    lr_mult: 1
    decay_mult: 0
  }
  bn_param { frozen: true
    slope_filler {
      value: 1
    }
    bias_filler {
      value: 0
    }
  }
}
layer {
  name: "caffe.ReLU_258"
  type: "ReLU"
  bottom: "caffe.BN_257"
  top: "caffe.BN_257"
}
layer {
  name: "caffe.SpatialConvolution_259"
  type: "Convolution"
  bottom: "caffe.BN_257"
  top: "caffe.SpatialConvolution_259"
  convolution_param {
    num_output: 128
    bias_term: false
    pad_h: 1
    pad_w: 1
    kernel_h: 3
    kernel_w: 3
    stride_h: 1
    stride_w: 1
  }
}
layer {
  name: "caffe.BN_260"
  type: "BN"
  bottom: "caffe.SpatialConvolution_259"
  top: "caffe.BN_260"
  param {
    lr_mult: 1
    decay_mult: 0
  }
  param {
    lr_mult: 1
    decay_mult: 0
  }
  bn_param { frozen: true
    slope_filler {
      value: 1
    }
    bias_filler {
      value: 0
    }
  }
}
layer {
  name: "caffe.ReLU_261"
  type: "ReLU"
  bottom: "caffe.BN_260"
  top: "caffe.BN_260"
}
layer {
  name: "caffe.SpatialConvolution_262"
  type: "Convolution"
  bottom: "caffe.BN_260"
  top: "caffe.SpatialConvolution_262"
  convolution_param {
    num_output: 512
    bias_term: false
    pad_h: 0
    pad_w: 0
    kernel_h: 1
    kernel_w: 1
    stride_h: 1
    stride_w: 1
  }
}
layer {
  name: "caffe.Eltwise_263"
  type: "Eltwise"
  bottom: "caffe.SpatialConvolution_262"
  bottom: "caffe.Eltwise_253"
  top: "caffe.Eltwise_263"
}
layer {
  name: "caffe.BN_264"
  type: "BN"
  bottom: "caffe.Eltwise_263"
  top: "caffe.BN_264"
  param {
    lr_mult: 1
    decay_mult: 0
  }
  param {
    lr_mult: 1
    decay_mult: 0
  }
  bn_param { frozen: true
    slope_filler {
      value: 1
    }
    bias_filler {
      value: 0
    }
  }
}
layer {
  name: "caffe.ReLU_265"
  type: "ReLU"
  bottom: "caffe.BN_264"
  top: "caffe.BN_264"
}
layer {
  name: "caffe.SpatialConvolution_266"
  type: "Convolution"
  bottom: "caffe.BN_264"
  top: "caffe.SpatialConvolution_266"
  convolution_param {
    num_output: 128
    bias_term: false
    pad_h: 0
    pad_w: 0
    kernel_h: 1
    kernel_w: 1
    stride_h: 1
    stride_w: 1
  }
}
layer {
  name: "caffe.BN_267"
  type: "BN"
  bottom: "caffe.SpatialConvolution_266"
  top: "caffe.BN_267"
  param {
    lr_mult: 1
    decay_mult: 0
  }
  param {
    lr_mult: 1
    decay_mult: 0
  }
  bn_param { frozen: true
    slope_filler {
      value: 1
    }
    bias_filler {
      value: 0
    }
  }
}
layer {
  name: "caffe.ReLU_268"
  type: "ReLU"
  bottom: "caffe.BN_267"
  top: "caffe.BN_267"
}
layer {
  name: "caffe.SpatialConvolution_269"
  type: "Convolution"
  bottom: "caffe.BN_267"
  top: "caffe.SpatialConvolution_269"
  convolution_param {
    num_output: 128
    bias_term: false
    pad_h: 1
    pad_w: 1
    kernel_h: 3
    kernel_w: 3
    stride_h: 1
    stride_w: 1
  }
}
layer {
  name: "caffe.BN_270"
  type: "BN"
  bottom: "caffe.SpatialConvolution_269"
  top: "caffe.BN_270"
  param {
    lr_mult: 1
    decay_mult: 0
  }
  param {
    lr_mult: 1
    decay_mult: 0
  }
  bn_param { frozen: true
    slope_filler {
      value: 1
    }
    bias_filler {
      value: 0
    }
  }
}
layer {
  name: "caffe.ReLU_271"
  type: "ReLU"
  bottom: "caffe.BN_270"
  top: "caffe.BN_270"
}
layer {
  name: "caffe.SpatialConvolution_272"
  type: "Convolution"
  bottom: "caffe.BN_270"
  top: "caffe.SpatialConvolution_272"
  convolution_param {
    num_output: 512
    bias_term: false
    pad_h: 0
    pad_w: 0
    kernel_h: 1
    kernel_w: 1
    stride_h: 1
    stride_w: 1
  }
}
layer {
  name: "caffe.Eltwise_273"
  type: "Eltwise"
  bottom: "caffe.SpatialConvolution_272"
  bottom: "caffe.Eltwise_263"
  top: "caffe.Eltwise_273"
}
layer {
  name: "caffe.BN_274"
  type: "BN"
  bottom: "caffe.Eltwise_273"
  top: "caffe.BN_274"
  param {
    lr_mult: 1
    decay_mult: 0
  }
  param {
    lr_mult: 1
    decay_mult: 0
  }
  bn_param { frozen: true
    slope_filler {
      value: 1
    }
    bias_filler {
      value: 0
    }
  }
}
layer {
  name: "caffe.ReLU_275"
  type: "ReLU"
  bottom: "caffe.BN_274"
  top: "caffe.BN_274"
}
layer {
  name: "caffe.SpatialConvolution_276"
  type: "Convolution"
  bottom: "caffe.BN_274"
  top: "caffe.SpatialConvolution_276"
  convolution_param {
    num_output: 128
    bias_term: false
    pad_h: 0
    pad_w: 0
    kernel_h: 1
    kernel_w: 1
    stride_h: 1
    stride_w: 1
  }
}
layer {
  name: "caffe.BN_277"
  type: "BN"
  bottom: "caffe.SpatialConvolution_276"
  top: "caffe.BN_277"
  param {
    lr_mult: 1
    decay_mult: 0
  }
  param {
    lr_mult: 1
    decay_mult: 0
  }
  bn_param { frozen: true
    slope_filler {
      value: 1
    }
    bias_filler {
      value: 0
    }
  }
}
layer {
  name: "caffe.ReLU_278"
  type: "ReLU"
  bottom: "caffe.BN_277"
  top: "caffe.BN_277"
}
layer {
  name: "caffe.SpatialConvolution_279"
  type: "Convolution"
  bottom: "caffe.BN_277"
  top: "caffe.SpatialConvolution_279"
  convolution_param {
    num_output: 128
    bias_term: false
    pad_h: 1
    pad_w: 1
    kernel_h: 3
    kernel_w: 3
    stride_h: 1
    stride_w: 1
  }
}
layer {
  name: "caffe.BN_280"
  type: "BN"
  bottom: "caffe.SpatialConvolution_279"
  top: "caffe.BN_280"
  param {
    lr_mult: 1
    decay_mult: 0
  }
  param {
    lr_mult: 1
    decay_mult: 0
  }
  bn_param { frozen: true
    slope_filler {
      value: 1
    }
    bias_filler {
      value: 0
    }
  }
}
layer {
  name: "caffe.ReLU_281"
  type: "ReLU"
  bottom: "caffe.BN_280"
  top: "caffe.BN_280"
}
layer {
  name: "caffe.SpatialConvolution_282"
  type: "Convolution"
  bottom: "caffe.BN_280"
  top: "caffe.SpatialConvolution_282"
  convolution_param {
    num_output: 512
    bias_term: false
    pad_h: 0
    pad_w: 0
    kernel_h: 1
    kernel_w: 1
    stride_h: 1
    stride_w: 1
  }
}
layer {
  name: "caffe.Eltwise_283"
  type: "Eltwise"
  bottom: "caffe.SpatialConvolution_282"
  bottom: "caffe.Eltwise_273"
  top: "caffe.Eltwise_283"
}
layer {
  name: "caffe.BN_284"
  type: "BN"
  bottom: "caffe.Eltwise_283"
  top: "caffe.BN_284"
  param {
    lr_mult: 1
    decay_mult: 0
  }
  param {
    lr_mult: 1
    decay_mult: 0
  }
  bn_param { frozen: true
    slope_filler {
      value: 1
    }
    bias_filler {
      value: 0
    }
  }
}
layer {
  name: "caffe.ReLU_285"
  type: "ReLU"
  bottom: "caffe.BN_284"
  top: "caffe.BN_284"
}
layer {
  name: "caffe.SpatialConvolution_286"
  type: "Convolution"
  bottom: "caffe.BN_284"
  top: "caffe.SpatialConvolution_286"
  convolution_param {
    num_output: 128
    bias_term: false
    pad_h: 0
    pad_w: 0
    kernel_h: 1
    kernel_w: 1
    stride_h: 1
    stride_w: 1
  }
}
layer {
  name: "caffe.BN_287"
  type: "BN"
  bottom: "caffe.SpatialConvolution_286"
  top: "caffe.BN_287"
  param {
    lr_mult: 1
    decay_mult: 0
  }
  param {
    lr_mult: 1
    decay_mult: 0
  }
  bn_param { frozen: true
    slope_filler {
      value: 1
    }
    bias_filler {
      value: 0
    }
  }
}
layer {
  name: "caffe.ReLU_288"
  type: "ReLU"
  bottom: "caffe.BN_287"
  top: "caffe.BN_287"
}
layer {
  name: "caffe.SpatialConvolution_289"
  type: "Convolution"
  bottom: "caffe.BN_287"
  top: "caffe.SpatialConvolution_289"
  convolution_param {
    num_output: 128
    bias_term: false
    pad_h: 1
    pad_w: 1
    kernel_h: 3
    kernel_w: 3
    stride_h: 1
    stride_w: 1
  }
}
layer {
  name: "caffe.BN_290"
  type: "BN"
  bottom: "caffe.SpatialConvolution_289"
  top: "caffe.BN_290"
  param {
    lr_mult: 1
    decay_mult: 0
  }
  param {
    lr_mult: 1
    decay_mult: 0
  }
  bn_param { frozen: true
    slope_filler {
      value: 1
    }
    bias_filler {
      value: 0
    }
  }
}
layer {
  name: "caffe.ReLU_291"
  type: "ReLU"
  bottom: "caffe.BN_290"
  top: "caffe.BN_290"
}
layer {
  name: "caffe.SpatialConvolution_292"
  type: "Convolution"
  bottom: "caffe.BN_290"
  top: "caffe.SpatialConvolution_292"
  convolution_param {
    num_output: 512
    bias_term: false
    pad_h: 0
    pad_w: 0
    kernel_h: 1
    kernel_w: 1
    stride_h: 1
    stride_w: 1
  }
}
layer {
  name: "caffe.Eltwise_293"
  type: "Eltwise"
  bottom: "caffe.SpatialConvolution_292"
  bottom: "caffe.Eltwise_283"
  top: "caffe.Eltwise_293"
}
layer {
  name: "caffe.BN_294"
  type: "BN"
  bottom: "caffe.Eltwise_293"
  top: "caffe.BN_294"
  param {
    lr_mult: 1
    decay_mult: 0
  }
  param {
    lr_mult: 1
    decay_mult: 0
  }
  bn_param { frozen: true
    slope_filler {
      value: 1
    }
    bias_filler {
      value: 0
    }
  }
}
layer {
  name: "caffe.ReLU_295"
  type: "ReLU"
  bottom: "caffe.BN_294"
  top: "caffe.BN_294"
}
layer {
  name: "caffe.SpatialConvolution_296"
  type: "Convolution"
  bottom: "caffe.BN_294"
  top: "caffe.SpatialConvolution_296"
  convolution_param {
    num_output: 128
    bias_term: false
    pad_h: 0
    pad_w: 0
    kernel_h: 1
    kernel_w: 1
    stride_h: 1
    stride_w: 1
  }
}
layer {
  name: "caffe.BN_297"
  type: "BN"
  bottom: "caffe.SpatialConvolution_296"
  top: "caffe.BN_297"
  param {
    lr_mult: 1
    decay_mult: 0
  }
  param {
    lr_mult: 1
    decay_mult: 0
  }
  bn_param { frozen: true
    slope_filler {
      value: 1
    }
    bias_filler {
      value: 0
    }
  }
}
layer {
  name: "caffe.ReLU_298"
  type: "ReLU"
  bottom: "caffe.BN_297"
  top: "caffe.BN_297"
}
layer {
  name: "caffe.SpatialConvolution_299"
  type: "Convolution"
  bottom: "caffe.BN_297"
  top: "caffe.SpatialConvolution_299"
  convolution_param {
    num_output: 128
    bias_term: false
    pad_h: 1
    pad_w: 1
    kernel_h: 3
    kernel_w: 3
    stride_h: 1
    stride_w: 1
  }
}
layer {
  name: "caffe.BN_300"
  type: "BN"
  bottom: "caffe.SpatialConvolution_299"
  top: "caffe.BN_300"
  param {
    lr_mult: 1
    decay_mult: 0
  }
  param {
    lr_mult: 1
    decay_mult: 0
  }
  bn_param { frozen: true
    slope_filler {
      value: 1
    }
    bias_filler {
      value: 0
    }
  }
}
layer {
  name: "caffe.ReLU_301"
  type: "ReLU"
  bottom: "caffe.BN_300"
  top: "caffe.BN_300"
}
layer {
  name: "caffe.SpatialConvolution_302"
  type: "Convolution"
  bottom: "caffe.BN_300"
  top: "caffe.SpatialConvolution_302"
  convolution_param {
    num_output: 512
    bias_term: false
    pad_h: 0
    pad_w: 0
    kernel_h: 1
    kernel_w: 1
    stride_h: 1
    stride_w: 1
  }
}
layer {
  name: "caffe.Eltwise_303"
  type: "Eltwise"
  bottom: "caffe.SpatialConvolution_302"
  bottom: "caffe.Eltwise_293"
  top: "caffe.Eltwise_303"
}
layer {
  name: "caffe.BN_304"
  type: "BN"
  bottom: "caffe.Eltwise_303"
  top: "caffe.BN_304"
  param {
    lr_mult: 1
    decay_mult: 0
  }
  param {
    lr_mult: 1
    decay_mult: 0
  }
  bn_param { frozen: true
    slope_filler {
      value: 1
    }
    bias_filler {
      value: 0
    }
  }
}
layer {
  name: "caffe.ReLU_305"
  type: "ReLU"
  bottom: "caffe.BN_304"
  top: "caffe.BN_304"
}
layer {
  name: "caffe.SpatialConvolution_306"
  type: "Convolution"
  bottom: "caffe.BN_304"
  top: "caffe.SpatialConvolution_306"
  convolution_param {
    num_output: 128
    bias_term: false
    pad_h: 0
    pad_w: 0
    kernel_h: 1
    kernel_w: 1
    stride_h: 1
    stride_w: 1
  }
}
layer {
  name: "caffe.BN_307"
  type: "BN"
  bottom: "caffe.SpatialConvolution_306"
  top: "caffe.BN_307"
  param {
    lr_mult: 1
    decay_mult: 0
  }
  param {
    lr_mult: 1
    decay_mult: 0
  }
  bn_param { frozen: true
    slope_filler {
      value: 1
    }
    bias_filler {
      value: 0
    }
  }
}
layer {
  name: "caffe.ReLU_308"
  type: "ReLU"
  bottom: "caffe.BN_307"
  top: "caffe.BN_307"
}
layer {
  name: "caffe.SpatialConvolution_309"
  type: "Convolution"
  bottom: "caffe.BN_307"
  top: "caffe.SpatialConvolution_309"
  convolution_param {
    num_output: 128
    bias_term: false
    pad_h: 1
    pad_w: 1
    kernel_h: 3
    kernel_w: 3
    stride_h: 1
    stride_w: 1
  }
}
layer {
  name: "caffe.BN_310"
  type: "BN"
  bottom: "caffe.SpatialConvolution_309"
  top: "caffe.BN_310"
  param {
    lr_mult: 1
    decay_mult: 0
  }
  param {
    lr_mult: 1
    decay_mult: 0
  }
  bn_param { frozen: true
    slope_filler {
      value: 1
    }
    bias_filler {
      value: 0
    }
  }
}
layer {
  name: "caffe.ReLU_311"
  type: "ReLU"
  bottom: "caffe.BN_310"
  top: "caffe.BN_310"
}
layer {
  name: "caffe.SpatialConvolution_312"
  type: "Convolution"
  bottom: "caffe.BN_310"
  top: "caffe.SpatialConvolution_312"
  convolution_param {
    num_output: 512
    bias_term: false
    pad_h: 0
    pad_w: 0
    kernel_h: 1
    kernel_w: 1
    stride_h: 1
    stride_w: 1
  }
}
layer {
  name: "caffe.Eltwise_313"
  type: "Eltwise"
  bottom: "caffe.SpatialConvolution_312"
  bottom: "caffe.Eltwise_303"
  top: "caffe.Eltwise_313"
}
layer {
  name: "caffe.BN_314"
  type: "BN"
  bottom: "caffe.Eltwise_313"
  top: "caffe.BN_314"
  param {
    lr_mult: 1
    decay_mult: 0
  }
  param {
    lr_mult: 1
    decay_mult: 0
  }
  bn_param { frozen: true
    slope_filler {
      value: 1
    }
    bias_filler {
      value: 0
    }
  }
}
layer {
  name: "caffe.ReLU_315"
  type: "ReLU"
  bottom: "caffe.BN_314"
  top: "caffe.BN_314"
}
layer {
  name: "caffe.SpatialConvolution_316"
  type: "Convolution"
  bottom: "caffe.BN_314"
  top: "caffe.SpatialConvolution_316"
  convolution_param {
    num_output: 128
    bias_term: false
    pad_h: 0
    pad_w: 0
    kernel_h: 1
    kernel_w: 1
    stride_h: 1
    stride_w: 1
  }
}
layer {
  name: "caffe.BN_317"
  type: "BN"
  bottom: "caffe.SpatialConvolution_316"
  top: "caffe.BN_317"
  param {
    lr_mult: 1
    decay_mult: 0
  }
  param {
    lr_mult: 1
    decay_mult: 0
  }
  bn_param { frozen: true
    slope_filler {
      value: 1
    }
    bias_filler {
      value: 0
    }
  }
}
layer {
  name: "caffe.ReLU_318"
  type: "ReLU"
  bottom: "caffe.BN_317"
  top: "caffe.BN_317"
}
layer {
  name: "caffe.SpatialConvolution_319"
  type: "Convolution"
  bottom: "caffe.BN_317"
  top: "caffe.SpatialConvolution_319"
  convolution_param {
    num_output: 128
    bias_term: false
    pad_h: 1
    pad_w: 1
    kernel_h: 3
    kernel_w: 3
    stride_h: 1
    stride_w: 1
  }
}
layer {
  name: "caffe.BN_320"
  type: "BN"
  bottom: "caffe.SpatialConvolution_319"
  top: "caffe.BN_320"
  param {
    lr_mult: 1
    decay_mult: 0
  }
  param {
    lr_mult: 1
    decay_mult: 0
  }
  bn_param { frozen: true
    slope_filler {
      value: 1
    }
    bias_filler {
      value: 0
    }
  }
}
layer {
  name: "caffe.ReLU_321"
  type: "ReLU"
  bottom: "caffe.BN_320"
  top: "caffe.BN_320"
}
layer {
  name: "caffe.SpatialConvolution_322"
  type: "Convolution"
  bottom: "caffe.BN_320"
  top: "caffe.SpatialConvolution_322"
  convolution_param {
    num_output: 512
    bias_term: false
    pad_h: 0
    pad_w: 0
    kernel_h: 1
    kernel_w: 1
    stride_h: 1
    stride_w: 1
  }
}
layer {
  name: "caffe.Eltwise_323"
  type: "Eltwise"
  bottom: "caffe.SpatialConvolution_322"
  bottom: "caffe.Eltwise_313"
  top: "caffe.Eltwise_323"
}
layer {
  name: "caffe.BN_324"
  type: "BN"
  bottom: "caffe.Eltwise_323"
  top: "caffe.BN_324"
  param {
    lr_mult: 1
    decay_mult: 0
  }
  param {
    lr_mult: 1
    decay_mult: 0
  }
  bn_param { frozen: true
    slope_filler {
      value: 1
    }
    bias_filler {
      value: 0
    }
  }
}
layer {
  name: "caffe.ReLU_325"
  type: "ReLU"
  bottom: "caffe.BN_324"
  top: "caffe.BN_324"
}
layer {
  name: "caffe.SpatialConvolution_326"
  type: "Convolution"
  bottom: "caffe.BN_324"
  top: "caffe.SpatialConvolution_326"
  convolution_param {
    num_output: 128
    bias_term: false
    pad_h: 0
    pad_w: 0
    kernel_h: 1
    kernel_w: 1
    stride_h: 1
    stride_w: 1
  }
}
layer {
  name: "caffe.BN_327"
  type: "BN"
  bottom: "caffe.SpatialConvolution_326"
  top: "caffe.BN_327"
  param {
    lr_mult: 1
    decay_mult: 0
  }
  param {
    lr_mult: 1
    decay_mult: 0
  }
  bn_param { frozen: true
    slope_filler {
      value: 1
    }
    bias_filler {
      value: 0
    }
  }
}
layer {
  name: "caffe.ReLU_328"
  type: "ReLU"
  bottom: "caffe.BN_327"
  top: "caffe.BN_327"
}
layer {
  name: "caffe.SpatialConvolution_329"
  type: "Convolution"
  bottom: "caffe.BN_327"
  top: "caffe.SpatialConvolution_329"
  convolution_param {
    num_output: 128
    bias_term: false
    pad_h: 1
    pad_w: 1
    kernel_h: 3
    kernel_w: 3
    stride_h: 1
    stride_w: 1
  }
}
layer {
  name: "caffe.BN_330"
  type: "BN"
  bottom: "caffe.SpatialConvolution_329"
  top: "caffe.BN_330"
  param {
    lr_mult: 1
    decay_mult: 0
  }
  param {
    lr_mult: 1
    decay_mult: 0
  }
  bn_param { frozen: true
    slope_filler {
      value: 1
    }
    bias_filler {
      value: 0
    }
  }
}
layer {
  name: "caffe.ReLU_331"
  type: "ReLU"
  bottom: "caffe.BN_330"
  top: "caffe.BN_330"
}
layer {
  name: "caffe.SpatialConvolution_332"
  type: "Convolution"
  bottom: "caffe.BN_330"
  top: "caffe.SpatialConvolution_332"
  convolution_param {
    num_output: 512
    bias_term: false
    pad_h: 0
    pad_w: 0
    kernel_h: 1
    kernel_w: 1
    stride_h: 1
    stride_w: 1
  }
}
layer {
  name: "caffe.Eltwise_333"
  type: "Eltwise"
  bottom: "caffe.SpatialConvolution_332"
  bottom: "caffe.Eltwise_323"
  top: "caffe.Eltwise_333"
}
layer {
  name: "caffe.BN_334"
  type: "BN"
  bottom: "caffe.Eltwise_333"
  top: "caffe.BN_334"
  param {
    lr_mult: 1
    decay_mult: 0
  }
  param {
    lr_mult: 1
    decay_mult: 0
  }
  bn_param { frozen: true
    slope_filler {
      value: 1
    }
    bias_filler {
      value: 0
    }
  }
}
layer {
  name: "caffe.ReLU_335"
  type: "ReLU"
  bottom: "caffe.BN_334"
  top: "caffe.BN_334"
}
layer {
  name: "caffe.SpatialConvolution_336"
  type: "Convolution"
  bottom: "caffe.BN_334"
  top: "caffe.SpatialConvolution_336"
  convolution_param {
    num_output: 256
    bias_term: false
    pad_h: 0
    pad_w: 0
    kernel_h: 1
    kernel_w: 1
    stride_h: 1
    stride_w: 1
  }
}
layer {
  name: "caffe.BN_337"
  type: "BN"
  bottom: "caffe.SpatialConvolution_336"
  top: "caffe.BN_337"
  param {
    lr_mult: 1
    decay_mult: 0
  }
  param {
    lr_mult: 1
    decay_mult: 0
  }
  bn_param { frozen: true
    slope_filler {
      value: 1
    }
    bias_filler {
      value: 0
    }
  }
}
layer {
  name: "caffe.ReLU_338"
  type: "ReLU"
  bottom: "caffe.BN_337"
  top: "caffe.BN_337"
}
layer {
  name: "caffe.SpatialConvolution_339"
  type: "Convolution"
  bottom: "caffe.BN_337"
  top: "caffe.SpatialConvolution_339"
  convolution_param {
    num_output: 256
    bias_term: false
    pad_h: 1
    pad_w: 1
    kernel_h: 3
    kernel_w: 3
    stride_h: 2
    stride_w: 2
  }
}
layer {
  name: "caffe.BN_340"
  type: "BN"
  bottom: "caffe.SpatialConvolution_339"
  top: "caffe.BN_340"
  param {
    lr_mult: 1
    decay_mult: 0
  }
  param {
    lr_mult: 1
    decay_mult: 0
  }
  bn_param { frozen: true
    slope_filler {
      value: 1
    }
    bias_filler {
      value: 0
    }
  }
}
layer {
  name: "caffe.ReLU_341"
  type: "ReLU"
  bottom: "caffe.BN_340"
  top: "caffe.BN_340"
}
layer {
  name: "caffe.SpatialConvolution_342"
  type: "Convolution"
  bottom: "caffe.BN_340"
  top: "caffe.SpatialConvolution_342"
  convolution_param {
    num_output: 1024
    bias_term: false
    pad_h: 0
    pad_w: 0
    kernel_h: 1
    kernel_w: 1
    stride_h: 1
    stride_w: 1
  }
}
layer {
  name: "caffe.SpatialConvolution_343"
  type: "Convolution"
  bottom: "caffe.BN_334"
  top: "caffe.SpatialConvolution_343"
  convolution_param {
    num_output: 1024
    bias_term: false
    pad_h: 0
    pad_w: 0
    kernel_h: 1
    kernel_w: 1
    stride_h: 2
    stride_w: 2
  }
}
layer {
  name: "caffe.Eltwise_344"
  type: "Eltwise"
  bottom: "caffe.SpatialConvolution_342"
  bottom: "caffe.SpatialConvolution_343"
  top: "caffe.Eltwise_344"
}
layer {
  name: "caffe.BN_345"
  type: "BN"
  bottom: "caffe.Eltwise_344"
  top: "caffe.BN_345"
  param {
    lr_mult: 1
    decay_mult: 0
  }
  param {
    lr_mult: 1
    decay_mult: 0
  }
  bn_param { frozen: true
    slope_filler {
      value: 1
    }
    bias_filler {
      value: 0
    }
  }
}
layer {
  name: "caffe.ReLU_346"
  type: "ReLU"
  bottom: "caffe.BN_345"
  top: "caffe.BN_345"
}
layer {
  name: "caffe.SpatialConvolution_347"
  type: "Convolution"
  bottom: "caffe.BN_345"
  top: "caffe.SpatialConvolution_347"
  convolution_param {
    num_output: 256
    bias_term: false
    pad_h: 0
    pad_w: 0
    kernel_h: 1
    kernel_w: 1
    stride_h: 1
    stride_w: 1
  }
}
layer {
  name: "caffe.BN_348"
  type: "BN"
  bottom: "caffe.SpatialConvolution_347"
  top: "caffe.BN_348"
  param {
    lr_mult: 1
    decay_mult: 0
  }
  param {
    lr_mult: 1
    decay_mult: 0
  }
  bn_param { frozen: true
    slope_filler {
      value: 1
    }
    bias_filler {
      value: 0
    }
  }
}
layer {
  name: "caffe.ReLU_349"
  type: "ReLU"
  bottom: "caffe.BN_348"
  top: "caffe.BN_348"
}
layer {
  name: "caffe.SpatialConvolution_350"
  type: "Convolution"
  bottom: "caffe.BN_348"
  top: "caffe.SpatialConvolution_350"
  convolution_param {
    num_output: 256
    bias_term: false
    pad_h: 1
    pad_w: 1
    kernel_h: 3
    kernel_w: 3
    stride_h: 1
    stride_w: 1
  }
}
layer {
  name: "caffe.BN_351"
  type: "BN"
  bottom: "caffe.SpatialConvolution_350"
  top: "caffe.BN_351"
  param {
    lr_mult: 1
    decay_mult: 0
  }
  param {
    lr_mult: 1
    decay_mult: 0
  }
  bn_param { frozen: true
    slope_filler {
      value: 1
    }
    bias_filler {
      value: 0
    }
  }
}
layer {
  name: "caffe.ReLU_352"
  type: "ReLU"
  bottom: "caffe.BN_351"
  top: "caffe.BN_351"
}
layer {
  name: "caffe.SpatialConvolution_353"
  type: "Convolution"
  bottom: "caffe.BN_351"
  top: "caffe.SpatialConvolution_353"
  convolution_param {
    num_output: 1024
    bias_term: false
    pad_h: 0
    pad_w: 0
    kernel_h: 1
    kernel_w: 1
    stride_h: 1
    stride_w: 1
  }
}
layer {
  name: "caffe.Eltwise_354"
  type: "Eltwise"
  bottom: "caffe.SpatialConvolution_353"
  bottom: "caffe.Eltwise_344"
  top: "caffe.Eltwise_354"
}
layer {
  name: "caffe.BN_355"
  type: "BN"
  bottom: "caffe.Eltwise_354"
  top: "caffe.BN_355"
  param {
    lr_mult: 1
    decay_mult: 0
  }
  param {
    lr_mult: 1
    decay_mult: 0
  }
  bn_param { frozen: true
    slope_filler {
      value: 1
    }
    bias_filler {
      value: 0
    }
  }
}
layer {
  name: "caffe.ReLU_356"
  type: "ReLU"
  bottom: "caffe.BN_355"
  top: "caffe.BN_355"
}
layer {
  name: "caffe.SpatialConvolution_357"
  type: "Convolution"
  bottom: "caffe.BN_355"
  top: "caffe.SpatialConvolution_357"
  convolution_param {
    num_output: 256
    bias_term: false
    pad_h: 0
    pad_w: 0
    kernel_h: 1
    kernel_w: 1
    stride_h: 1
    stride_w: 1
  }
}
layer {
  name: "caffe.BN_358"
  type: "BN"
  bottom: "caffe.SpatialConvolution_357"
  top: "caffe.BN_358"
  param {
    lr_mult: 1
    decay_mult: 0
  }
  param {
    lr_mult: 1
    decay_mult: 0
  }
  bn_param { frozen: true
    slope_filler {
      value: 1
    }
    bias_filler {
      value: 0
    }
  }
}
layer {
  name: "caffe.ReLU_359"
  type: "ReLU"
  bottom: "caffe.BN_358"
  top: "caffe.BN_358"
}
layer {
  name: "caffe.SpatialConvolution_360"
  type: "Convolution"
  bottom: "caffe.BN_358"
  top: "caffe.SpatialConvolution_360"
  convolution_param {
    num_output: 256
    bias_term: false
    pad_h: 1
    pad_w: 1
    kernel_h: 3
    kernel_w: 3
    stride_h: 1
    stride_w: 1
  }
}
layer {
  name: "caffe.BN_361"
  type: "BN"
  bottom: "caffe.SpatialConvolution_360"
  top: "caffe.BN_361"
  param {
    lr_mult: 1
    decay_mult: 0
  }
  param {
    lr_mult: 1
    decay_mult: 0
  }
  bn_param { frozen: true
    slope_filler {
      value: 1
    }
    bias_filler {
      value: 0
    }
  }
}
layer {
  name: "caffe.ReLU_362"
  type: "ReLU"
  bottom: "caffe.BN_361"
  top: "caffe.BN_361"
}
layer {
  name: "caffe.SpatialConvolution_363"
  type: "Convolution"
  bottom: "caffe.BN_361"
  top: "caffe.SpatialConvolution_363"
  convolution_param {
    num_output: 1024
    bias_term: false
    pad_h: 0
    pad_w: 0
    kernel_h: 1
    kernel_w: 1
    stride_h: 1
    stride_w: 1
  }
}
layer {
  name: "caffe.Eltwise_364"
  type: "Eltwise"
  bottom: "caffe.SpatialConvolution_363"
  bottom: "caffe.Eltwise_354"
  top: "caffe.Eltwise_364"
}
layer {
  name: "caffe.BN_365"
  type: "BN"
  bottom: "caffe.Eltwise_364"
  top: "caffe.BN_365"
  param {
    lr_mult: 1
    decay_mult: 0
  }
  param {
    lr_mult: 1
    decay_mult: 0
  }
  bn_param { frozen: true
    slope_filler {
      value: 1
    }
    bias_filler {
      value: 0
    }
  }
}
layer {
  name: "caffe.ReLU_366"
  type: "ReLU"
  bottom: "caffe.BN_365"
  top: "caffe.BN_365"
}
layer {
  name: "caffe.SpatialConvolution_367"
  type: "Convolution"
  bottom: "caffe.BN_365"
  top: "caffe.SpatialConvolution_367"
  convolution_param {
    num_output: 256
    bias_term: false
    pad_h: 0
    pad_w: 0
    kernel_h: 1
    kernel_w: 1
    stride_h: 1
    stride_w: 1
  }
}
layer {
  name: "caffe.BN_368"
  type: "BN"
  bottom: "caffe.SpatialConvolution_367"
  top: "caffe.BN_368"
  param {
    lr_mult: 1
    decay_mult: 0
  }
  param {
    lr_mult: 1
    decay_mult: 0
  }
  bn_param { frozen: true
    slope_filler {
      value: 1
    }
    bias_filler {
      value: 0
    }
  }
}
layer {
  name: "caffe.ReLU_369"
  type: "ReLU"
  bottom: "caffe.BN_368"
  top: "caffe.BN_368"
}
layer {
  name: "caffe.SpatialConvolution_370"
  type: "Convolution"
  bottom: "caffe.BN_368"
  top: "caffe.SpatialConvolution_370"
  convolution_param {
    num_output: 256
    bias_term: false
    pad_h: 1
    pad_w: 1
    kernel_h: 3
    kernel_w: 3
    stride_h: 1
    stride_w: 1
  }
}
layer {
  name: "caffe.BN_371"
  type: "BN"
  bottom: "caffe.SpatialConvolution_370"
  top: "caffe.BN_371"
  param {
    lr_mult: 1
    decay_mult: 0
  }
  param {
    lr_mult: 1
    decay_mult: 0
  }
  bn_param { frozen: true
    slope_filler {
      value: 1
    }
    bias_filler {
      value: 0
    }
  }
}
layer {
  name: "caffe.ReLU_372"
  type: "ReLU"
  bottom: "caffe.BN_371"
  top: "caffe.BN_371"
}
layer {
  name: "caffe.SpatialConvolution_373"
  type: "Convolution"
  bottom: "caffe.BN_371"
  top: "caffe.SpatialConvolution_373"
  convolution_param {
    num_output: 1024
    bias_term: false
    pad_h: 0
    pad_w: 0
    kernel_h: 1
    kernel_w: 1
    stride_h: 1
    stride_w: 1
  }
}
layer {
  name: "caffe.Eltwise_374"
  type: "Eltwise"
  bottom: "caffe.SpatialConvolution_373"
  bottom: "caffe.Eltwise_364"
  top: "caffe.Eltwise_374"
}
layer {
  name: "caffe.BN_375"
  type: "BN"
  bottom: "caffe.Eltwise_374"
  top: "caffe.BN_375"
  param {
    lr_mult: 1
    decay_mult: 0
  }
  param {
    lr_mult: 1
    decay_mult: 0
  }
  bn_param { frozen: true
    slope_filler {
      value: 1
    }
    bias_filler {
      value: 0
    }
  }
}
layer {
  name: "caffe.ReLU_376"
  type: "ReLU"
  bottom: "caffe.BN_375"
  top: "caffe.BN_375"
}
layer {
  name: "caffe.SpatialConvolution_377"
  type: "Convolution"
  bottom: "caffe.BN_375"
  top: "caffe.SpatialConvolution_377"
  convolution_param {
    num_output: 256
    bias_term: false
    pad_h: 0
    pad_w: 0
    kernel_h: 1
    kernel_w: 1
    stride_h: 1
    stride_w: 1
  }
}
layer {
  name: "caffe.BN_378"
  type: "BN"
  bottom: "caffe.SpatialConvolution_377"
  top: "caffe.BN_378"
  param {
    lr_mult: 1
    decay_mult: 0
  }
  param {
    lr_mult: 1
    decay_mult: 0
  }
  bn_param { frozen: true
    slope_filler {
      value: 1
    }
    bias_filler {
      value: 0
    }
  }
}
layer {
  name: "caffe.ReLU_379"
  type: "ReLU"
  bottom: "caffe.BN_378"
  top: "caffe.BN_378"
}
layer {
  name: "caffe.SpatialConvolution_380"
  type: "Convolution"
  bottom: "caffe.BN_378"
  top: "caffe.SpatialConvolution_380"
  convolution_param {
    num_output: 256
    bias_term: false
    pad_h: 1
    pad_w: 1
    kernel_h: 3
    kernel_w: 3
    stride_h: 1
    stride_w: 1
  }
}
layer {
  name: "caffe.BN_381"
  type: "BN"
  bottom: "caffe.SpatialConvolution_380"
  top: "caffe.BN_381"
  param {
    lr_mult: 1
    decay_mult: 0
  }
  param {
    lr_mult: 1
    decay_mult: 0
  }
  bn_param { frozen: true
    slope_filler {
      value: 1
    }
    bias_filler {
      value: 0
    }
  }
}
layer {
  name: "caffe.ReLU_382"
  type: "ReLU"
  bottom: "caffe.BN_381"
  top: "caffe.BN_381"
}
layer {
  name: "caffe.SpatialConvolution_383"
  type: "Convolution"
  bottom: "caffe.BN_381"
  top: "caffe.SpatialConvolution_383"
  convolution_param {
    num_output: 1024
    bias_term: false
    pad_h: 0
    pad_w: 0
    kernel_h: 1
    kernel_w: 1
    stride_h: 1
    stride_w: 1
  }
}
layer {
  name: "caffe.Eltwise_384"
  type: "Eltwise"
  bottom: "caffe.SpatialConvolution_383"
  bottom: "caffe.Eltwise_374"
  top: "caffe.Eltwise_384"
}
layer {
  name: "caffe.BN_385"
  type: "BN"
  bottom: "caffe.Eltwise_384"
  top: "caffe.BN_385"
  param {
    lr_mult: 1
    decay_mult: 0
  }
  param {
    lr_mult: 1
    decay_mult: 0
  }
  bn_param { frozen: true
    slope_filler {
      value: 1
    }
    bias_filler {
      value: 0
    }
  }
}
layer {
  name: "caffe.ReLU_386"
  type: "ReLU"
  bottom: "caffe.BN_385"
  top: "caffe.BN_385"
}
layer {
  name: "caffe.SpatialConvolution_387"
  type: "Convolution"
  bottom: "caffe.BN_385"
  top: "caffe.SpatialConvolution_387"
  convolution_param {
    num_output: 256
    bias_term: false
    pad_h: 0
    pad_w: 0
    kernel_h: 1
    kernel_w: 1
    stride_h: 1
    stride_w: 1
  }
}
layer {
  name: "caffe.BN_388"
  type: "BN"
  bottom: "caffe.SpatialConvolution_387"
  top: "caffe.BN_388"
  param {
    lr_mult: 1
    decay_mult: 0
  }
  param {
    lr_mult: 1
    decay_mult: 0
  }
  bn_param { frozen: true
    slope_filler {
      value: 1
    }
    bias_filler {
      value: 0
    }
  }
}
layer {
  name: "caffe.ReLU_389"
  type: "ReLU"
  bottom: "caffe.BN_388"
  top: "caffe.BN_388"
}
layer {
  name: "caffe.SpatialConvolution_390"
  type: "Convolution"
  bottom: "caffe.BN_388"
  top: "caffe.SpatialConvolution_390"
  convolution_param {
    num_output: 256
    bias_term: false
    pad_h: 1
    pad_w: 1
    kernel_h: 3
    kernel_w: 3
    stride_h: 1
    stride_w: 1
  }
}
layer {
  name: "caffe.BN_391"
  type: "BN"
  bottom: "caffe.SpatialConvolution_390"
  top: "caffe.BN_391"
  param {
    lr_mult: 1
    decay_mult: 0
  }
  param {
    lr_mult: 1
    decay_mult: 0
  }
  bn_param { frozen: true
    slope_filler {
      value: 1
    }
    bias_filler {
      value: 0
    }
  }
}
layer {
  name: "caffe.ReLU_392"
  type: "ReLU"
  bottom: "caffe.BN_391"
  top: "caffe.BN_391"
}
layer {
  name: "caffe.SpatialConvolution_393"
  type: "Convolution"
  bottom: "caffe.BN_391"
  top: "caffe.SpatialConvolution_393"
  convolution_param {
    num_output: 1024
    bias_term: false
    pad_h: 0
    pad_w: 0
    kernel_h: 1
    kernel_w: 1
    stride_h: 1
    stride_w: 1
  }
}
layer {
  name: "caffe.Eltwise_394"
  type: "Eltwise"
  bottom: "caffe.SpatialConvolution_393"
  bottom: "caffe.Eltwise_384"
  top: "caffe.Eltwise_394"
}
layer {
  name: "caffe.BN_395"
  type: "BN"
  bottom: "caffe.Eltwise_394"
  top: "caffe.BN_395"
  param {
    lr_mult: 1
    decay_mult: 0
  }
  param {
    lr_mult: 1
    decay_mult: 0
  }
  bn_param { frozen: true
    slope_filler {
      value: 1
    }
    bias_filler {
      value: 0
    }
  }
}
layer {
  name: "caffe.ReLU_396"
  type: "ReLU"
  bottom: "caffe.BN_395"
  top: "caffe.BN_395"
}
layer {
  name: "caffe.SpatialConvolution_397"
  type: "Convolution"
  bottom: "caffe.BN_395"
  top: "caffe.SpatialConvolution_397"
  convolution_param {
    num_output: 256
    bias_term: false
    pad_h: 0
    pad_w: 0
    kernel_h: 1
    kernel_w: 1
    stride_h: 1
    stride_w: 1
  }
}
layer {
  name: "caffe.BN_398"
  type: "BN"
  bottom: "caffe.SpatialConvolution_397"
  top: "caffe.BN_398"
  param {
    lr_mult: 1
    decay_mult: 0
  }
  param {
    lr_mult: 1
    decay_mult: 0
  }
  bn_param { frozen: true
    slope_filler {
      value: 1
    }
    bias_filler {
      value: 0
    }
  }
}
layer {
  name: "caffe.ReLU_399"
  type: "ReLU"
  bottom: "caffe.BN_398"
  top: "caffe.BN_398"
}
layer {
  name: "caffe.SpatialConvolution_400"
  type: "Convolution"
  bottom: "caffe.BN_398"
  top: "caffe.SpatialConvolution_400"
  convolution_param {
    num_output: 256
    bias_term: false
    pad_h: 1
    pad_w: 1
    kernel_h: 3
    kernel_w: 3
    stride_h: 1
    stride_w: 1
  }
}
layer {
  name: "caffe.BN_401"
  type: "BN"
  bottom: "caffe.SpatialConvolution_400"
  top: "caffe.BN_401"
  param {
    lr_mult: 1
    decay_mult: 0
  }
  param {
    lr_mult: 1
    decay_mult: 0
  }
  bn_param { frozen: true
    slope_filler {
      value: 1
    }
    bias_filler {
      value: 0
    }
  }
}
layer {
  name: "caffe.ReLU_402"
  type: "ReLU"
  bottom: "caffe.BN_401"
  top: "caffe.BN_401"
}
layer {
  name: "caffe.SpatialConvolution_403"
  type: "Convolution"
  bottom: "caffe.BN_401"
  top: "caffe.SpatialConvolution_403"
  convolution_param {
    num_output: 1024
    bias_term: false
    pad_h: 0
    pad_w: 0
    kernel_h: 1
    kernel_w: 1
    stride_h: 1
    stride_w: 1
  }
}
layer {
  name: "caffe.Eltwise_404"
  type: "Eltwise"
  bottom: "caffe.SpatialConvolution_403"
  bottom: "caffe.Eltwise_394"
  top: "caffe.Eltwise_404"
}
layer {
  name: "caffe.BN_405"
  type: "BN"
  bottom: "caffe.Eltwise_404"
  top: "caffe.BN_405"
  param {
    lr_mult: 1
    decay_mult: 0
  }
  param {
    lr_mult: 1
    decay_mult: 0
  }
  bn_param { frozen: true
    slope_filler {
      value: 1
    }
    bias_filler {
      value: 0
    }
  }
}
layer {
  name: "caffe.ReLU_406"
  type: "ReLU"
  bottom: "caffe.BN_405"
  top: "caffe.BN_405"
}
layer {
  name: "caffe.SpatialConvolution_407"
  type: "Convolution"
  bottom: "caffe.BN_405"
  top: "caffe.SpatialConvolution_407"
  convolution_param {
    num_output: 256
    bias_term: false
    pad_h: 0
    pad_w: 0
    kernel_h: 1
    kernel_w: 1
    stride_h: 1
    stride_w: 1
  }
}
layer {
  name: "caffe.BN_408"
  type: "BN"
  bottom: "caffe.SpatialConvolution_407"
  top: "caffe.BN_408"
  param {
    lr_mult: 1
    decay_mult: 0
  }
  param {
    lr_mult: 1
    decay_mult: 0
  }
  bn_param { frozen: true
    slope_filler {
      value: 1
    }
    bias_filler {
      value: 0
    }
  }
}
layer {
  name: "caffe.ReLU_409"
  type: "ReLU"
  bottom: "caffe.BN_408"
  top: "caffe.BN_408"
}
layer {
  name: "caffe.SpatialConvolution_410"
  type: "Convolution"
  bottom: "caffe.BN_408"
  top: "caffe.SpatialConvolution_410"
  convolution_param {
    num_output: 256
    bias_term: false
    pad_h: 1
    pad_w: 1
    kernel_h: 3
    kernel_w: 3
    stride_h: 1
    stride_w: 1
  }
}
layer {
  name: "caffe.BN_411"
  type: "BN"
  bottom: "caffe.SpatialConvolution_410"
  top: "caffe.BN_411"
  param {
    lr_mult: 1
    decay_mult: 0
  }
  param {
    lr_mult: 1
    decay_mult: 0
  }
  bn_param { frozen: true
    slope_filler {
      value: 1
    }
    bias_filler {
      value: 0
    }
  }
}
layer {
  name: "caffe.ReLU_412"
  type: "ReLU"
  bottom: "caffe.BN_411"
  top: "caffe.BN_411"
}
layer {
  name: "caffe.SpatialConvolution_413"
  type: "Convolution"
  bottom: "caffe.BN_411"
  top: "caffe.SpatialConvolution_413"
  convolution_param {
    num_output: 1024
    bias_term: false
    pad_h: 0
    pad_w: 0
    kernel_h: 1
    kernel_w: 1
    stride_h: 1
    stride_w: 1
  }
}
layer {
  name: "caffe.Eltwise_414"
  type: "Eltwise"
  bottom: "caffe.SpatialConvolution_413"
  bottom: "caffe.Eltwise_404"
  top: "caffe.Eltwise_414"
}
layer {
  name: "caffe.BN_415"
  type: "BN"
  bottom: "caffe.Eltwise_414"
  top: "caffe.BN_415"
  param {
    lr_mult: 1
    decay_mult: 0
  }
  param {
    lr_mult: 1
    decay_mult: 0
  }
  bn_param { frozen: true
    slope_filler {
      value: 1
    }
    bias_filler {
      value: 0
    }
  }
}
layer {
  name: "caffe.ReLU_416"
  type: "ReLU"
  bottom: "caffe.BN_415"
  top: "caffe.BN_415"
}
layer {
  name: "caffe.SpatialConvolution_417"
  type: "Convolution"
  bottom: "caffe.BN_415"
  top: "caffe.SpatialConvolution_417"
  convolution_param {
    num_output: 256
    bias_term: false
    pad_h: 0
    pad_w: 0
    kernel_h: 1
    kernel_w: 1
    stride_h: 1
    stride_w: 1
  }
}
layer {
  name: "caffe.BN_418"
  type: "BN"
  bottom: "caffe.SpatialConvolution_417"
  top: "caffe.BN_418"
  param {
    lr_mult: 1
    decay_mult: 0
  }
  param {
    lr_mult: 1
    decay_mult: 0
  }
  bn_param { frozen: true
    slope_filler {
      value: 1
    }
    bias_filler {
      value: 0
    }
  }
}
layer {
  name: "caffe.ReLU_419"
  type: "ReLU"
  bottom: "caffe.BN_418"
  top: "caffe.BN_418"
}
layer {
  name: "caffe.SpatialConvolution_420"
  type: "Convolution"
  bottom: "caffe.BN_418"
  top: "caffe.SpatialConvolution_420"
  convolution_param {
    num_output: 256
    bias_term: false
    pad_h: 1
    pad_w: 1
    kernel_h: 3
    kernel_w: 3
    stride_h: 1
    stride_w: 1
  }
}
layer {
  name: "caffe.BN_421"
  type: "BN"
  bottom: "caffe.SpatialConvolution_420"
  top: "caffe.BN_421"
  param {
    lr_mult: 1
    decay_mult: 0
  }
  param {
    lr_mult: 1
    decay_mult: 0
  }
  bn_param { frozen: true
    slope_filler {
      value: 1
    }
    bias_filler {
      value: 0
    }
  }
}
layer {
  name: "caffe.ReLU_422"
  type: "ReLU"
  bottom: "caffe.BN_421"
  top: "caffe.BN_421"
}
layer {
  name: "caffe.SpatialConvolution_423"
  type: "Convolution"
  bottom: "caffe.BN_421"
  top: "caffe.SpatialConvolution_423"
  convolution_param {
    num_output: 1024
    bias_term: false
    pad_h: 0
    pad_w: 0
    kernel_h: 1
    kernel_w: 1
    stride_h: 1
    stride_w: 1
  }
}
layer {
  name: "caffe.Eltwise_424"
  type: "Eltwise"
  bottom: "caffe.SpatialConvolution_423"
  bottom: "caffe.Eltwise_414"
  top: "caffe.Eltwise_424"
}
layer {
  name: "caffe.BN_425"
  type: "BN"
  bottom: "caffe.Eltwise_424"
  top: "caffe.BN_425"
  param {
    lr_mult: 1
    decay_mult: 0
  }
  param {
    lr_mult: 1
    decay_mult: 0
  }
  bn_param { frozen: true
    slope_filler {
      value: 1
    }
    bias_filler {
      value: 0
    }
  }
}
layer {
  name: "caffe.ReLU_426"
  type: "ReLU"
  bottom: "caffe.BN_425"
  top: "caffe.BN_425"
}
layer {
  name: "caffe.SpatialConvolution_427"
  type: "Convolution"
  bottom: "caffe.BN_425"
  top: "caffe.SpatialConvolution_427"
  convolution_param {
    num_output: 256
    bias_term: false
    pad_h: 0
    pad_w: 0
    kernel_h: 1
    kernel_w: 1
    stride_h: 1
    stride_w: 1
  }
}
layer {
  name: "caffe.BN_428"
  type: "BN"
  bottom: "caffe.SpatialConvolution_427"
  top: "caffe.BN_428"
  param {
    lr_mult: 1
    decay_mult: 0
  }
  param {
    lr_mult: 1
    decay_mult: 0
  }
  bn_param { frozen: true
    slope_filler {
      value: 1
    }
    bias_filler {
      value: 0
    }
  }
}
layer {
  name: "caffe.ReLU_429"
  type: "ReLU"
  bottom: "caffe.BN_428"
  top: "caffe.BN_428"
}
layer {
  name: "caffe.SpatialConvolution_430"
  type: "Convolution"
  bottom: "caffe.BN_428"
  top: "caffe.SpatialConvolution_430"
  convolution_param {
    num_output: 256
    bias_term: false
    pad_h: 1
    pad_w: 1
    kernel_h: 3
    kernel_w: 3
    stride_h: 1
    stride_w: 1
  }
}
layer {
  name: "caffe.BN_431"
  type: "BN"
  bottom: "caffe.SpatialConvolution_430"
  top: "caffe.BN_431"
  param {
    lr_mult: 1
    decay_mult: 0
  }
  param {
    lr_mult: 1
    decay_mult: 0
  }
  bn_param { frozen: true
    slope_filler {
      value: 1
    }
    bias_filler {
      value: 0
    }
  }
}
layer {
  name: "caffe.ReLU_432"
  type: "ReLU"
  bottom: "caffe.BN_431"
  top: "caffe.BN_431"
}
layer {
  name: "caffe.SpatialConvolution_433"
  type: "Convolution"
  bottom: "caffe.BN_431"
  top: "caffe.SpatialConvolution_433"
  convolution_param {
    num_output: 1024
    bias_term: false
    pad_h: 0
    pad_w: 0
    kernel_h: 1
    kernel_w: 1
    stride_h: 1
    stride_w: 1
  }
}
layer {
  name: "caffe.Eltwise_434"
  type: "Eltwise"
  bottom: "caffe.SpatialConvolution_433"
  bottom: "caffe.Eltwise_424"
  top: "caffe.Eltwise_434"
}
layer {
  name: "caffe.BN_435"
  type: "BN"
  bottom: "caffe.Eltwise_434"
  top: "caffe.BN_435"
  param {
    lr_mult: 1
    decay_mult: 0
  }
  param {
    lr_mult: 1
    decay_mult: 0
  }
  bn_param { frozen: true
    slope_filler {
      value: 1
    }
    bias_filler {
      value: 0
    }
  }
}
layer {
  name: "caffe.ReLU_436"
  type: "ReLU"
  bottom: "caffe.BN_435"
  top: "caffe.BN_435"
}
layer {
  name: "caffe.SpatialConvolution_437"
  type: "Convolution"
  bottom: "caffe.BN_435"
  top: "caffe.SpatialConvolution_437"
  convolution_param {
    num_output: 256
    bias_term: false
    pad_h: 0
    pad_w: 0
    kernel_h: 1
    kernel_w: 1
    stride_h: 1
    stride_w: 1
  }
}
layer {
  name: "caffe.BN_438"
  type: "BN"
  bottom: "caffe.SpatialConvolution_437"
  top: "caffe.BN_438"
  param {
    lr_mult: 1
    decay_mult: 0
  }
  param {
    lr_mult: 1
    decay_mult: 0
  }
  bn_param { frozen: true
    slope_filler {
      value: 1
    }
    bias_filler {
      value: 0
    }
  }
}
layer {
  name: "caffe.ReLU_439"
  type: "ReLU"
  bottom: "caffe.BN_438"
  top: "caffe.BN_438"
}
layer {
  name: "caffe.SpatialConvolution_440"
  type: "Convolution"
  bottom: "caffe.BN_438"
  top: "caffe.SpatialConvolution_440"
  convolution_param {
    num_output: 256
    bias_term: false
    pad_h: 1
    pad_w: 1
    kernel_h: 3
    kernel_w: 3
    stride_h: 1
    stride_w: 1
  }
}
layer {
  name: "caffe.BN_441"
  type: "BN"
  bottom: "caffe.SpatialConvolution_440"
  top: "caffe.BN_441"
  param {
    lr_mult: 1
    decay_mult: 0
  }
  param {
    lr_mult: 1
    decay_mult: 0
  }
  bn_param { frozen: true
    slope_filler {
      value: 1
    }
    bias_filler {
      value: 0
    }
  }
}
layer {
  name: "caffe.ReLU_442"
  type: "ReLU"
  bottom: "caffe.BN_441"
  top: "caffe.BN_441"
}
layer {
  name: "caffe.SpatialConvolution_443"
  type: "Convolution"
  bottom: "caffe.BN_441"
  top: "caffe.SpatialConvolution_443"
  convolution_param {
    num_output: 1024
    bias_term: false
    pad_h: 0
    pad_w: 0
    kernel_h: 1
    kernel_w: 1
    stride_h: 1
    stride_w: 1
  }
}
layer {
  name: "caffe.Eltwise_444"
  type: "Eltwise"
  bottom: "caffe.SpatialConvolution_443"
  bottom: "caffe.Eltwise_434"
  top: "caffe.Eltwise_444"
}
layer {
  name: "caffe.BN_445"
  type: "BN"
  bottom: "caffe.Eltwise_444"
  top: "caffe.BN_445"
  param {
    lr_mult: 1
    decay_mult: 0
  }
  param {
    lr_mult: 1
    decay_mult: 0
  }
  bn_param { frozen: true
    slope_filler {
      value: 1
    }
    bias_filler {
      value: 0
    }
  }
}
layer {
  name: "caffe.ReLU_446"
  type: "ReLU"
  bottom: "caffe.BN_445"
  top: "caffe.BN_445"
}
layer {
  name: "caffe.SpatialConvolution_447"
  type: "Convolution"
  bottom: "caffe.BN_445"
  top: "caffe.SpatialConvolution_447"
  convolution_param {
    num_output: 256
    bias_term: false
    pad_h: 0
    pad_w: 0
    kernel_h: 1
    kernel_w: 1
    stride_h: 1
    stride_w: 1
  }
}
layer {
  name: "caffe.BN_448"
  type: "BN"
  bottom: "caffe.SpatialConvolution_447"
  top: "caffe.BN_448"
  param {
    lr_mult: 1
    decay_mult: 0
  }
  param {
    lr_mult: 1
    decay_mult: 0
  }
  bn_param { frozen: true
    slope_filler {
      value: 1
    }
    bias_filler {
      value: 0
    }
  }
}
layer {
  name: "caffe.ReLU_449"
  type: "ReLU"
  bottom: "caffe.BN_448"
  top: "caffe.BN_448"
}
layer {
  name: "caffe.SpatialConvolution_450"
  type: "Convolution"
  bottom: "caffe.BN_448"
  top: "caffe.SpatialConvolution_450"
  convolution_param {
    num_output: 256
    bias_term: false
    pad_h: 1
    pad_w: 1
    kernel_h: 3
    kernel_w: 3
    stride_h: 1
    stride_w: 1
  }
}
layer {
  name: "caffe.BN_451"
  type: "BN"
  bottom: "caffe.SpatialConvolution_450"
  top: "caffe.BN_451"
  param {
    lr_mult: 1
    decay_mult: 0
  }
  param {
    lr_mult: 1
    decay_mult: 0
  }
  bn_param { frozen: true
    slope_filler {
      value: 1
    }
    bias_filler {
      value: 0
    }
  }
}
layer {
  name: "caffe.ReLU_452"
  type: "ReLU"
  bottom: "caffe.BN_451"
  top: "caffe.BN_451"
}
layer {
  name: "caffe.SpatialConvolution_453"
  type: "Convolution"
  bottom: "caffe.BN_451"
  top: "caffe.SpatialConvolution_453"
  convolution_param {
    num_output: 1024
    bias_term: false
    pad_h: 0
    pad_w: 0
    kernel_h: 1
    kernel_w: 1
    stride_h: 1
    stride_w: 1
  }
}
layer {
  name: "caffe.Eltwise_454"
  type: "Eltwise"
  bottom: "caffe.SpatialConvolution_453"
  bottom: "caffe.Eltwise_444"
  top: "caffe.Eltwise_454"
}
layer {
  name: "caffe.BN_455"
  type: "BN"
  bottom: "caffe.Eltwise_454"
  top: "caffe.BN_455"
  param {
    lr_mult: 1
    decay_mult: 0
  }
  param {
    lr_mult: 1
    decay_mult: 0
  }
  bn_param { frozen: true
    slope_filler {
      value: 1
    }
    bias_filler {
      value: 0
    }
  }
}
layer {
  name: "caffe.ReLU_456"
  type: "ReLU"
  bottom: "caffe.BN_455"
  top: "caffe.BN_455"
}
layer {
  name: "caffe.SpatialConvolution_457"
  type: "Convolution"
  bottom: "caffe.BN_455"
  top: "caffe.SpatialConvolution_457"
  convolution_param {
    num_output: 256
    bias_term: false
    pad_h: 0
    pad_w: 0
    kernel_h: 1
    kernel_w: 1
    stride_h: 1
    stride_w: 1
  }
}
layer {
  name: "caffe.BN_458"
  type: "BN"
  bottom: "caffe.SpatialConvolution_457"
  top: "caffe.BN_458"
  param {
    lr_mult: 1
    decay_mult: 0
  }
  param {
    lr_mult: 1
    decay_mult: 0
  }
  bn_param { frozen: true
    slope_filler {
      value: 1
    }
    bias_filler {
      value: 0
    }
  }
}
layer {
  name: "caffe.ReLU_459"
  type: "ReLU"
  bottom: "caffe.BN_458"
  top: "caffe.BN_458"
}
layer {
  name: "caffe.SpatialConvolution_460"
  type: "Convolution"
  bottom: "caffe.BN_458"
  top: "caffe.SpatialConvolution_460"
  convolution_param {
    num_output: 256
    bias_term: false
    pad_h: 1
    pad_w: 1
    kernel_h: 3
    kernel_w: 3
    stride_h: 1
    stride_w: 1
  }
}
layer {
  name: "caffe.BN_461"
  type: "BN"
  bottom: "caffe.SpatialConvolution_460"
  top: "caffe.BN_461"
  param {
    lr_mult: 1
    decay_mult: 0
  }
  param {
    lr_mult: 1
    decay_mult: 0
  }
  bn_param { frozen: true
    slope_filler {
      value: 1
    }
    bias_filler {
      value: 0
    }
  }
}
layer {
  name: "caffe.ReLU_462"
  type: "ReLU"
  bottom: "caffe.BN_461"
  top: "caffe.BN_461"
}
layer {
  name: "caffe.SpatialConvolution_463"
  type: "Convolution"
  bottom: "caffe.BN_461"
  top: "caffe.SpatialConvolution_463"
  convolution_param {
    num_output: 1024
    bias_term: false
    pad_h: 0
    pad_w: 0
    kernel_h: 1
    kernel_w: 1
    stride_h: 1
    stride_w: 1
  }
}
layer {
  name: "caffe.Eltwise_464"
  type: "Eltwise"
  bottom: "caffe.SpatialConvolution_463"
  bottom: "caffe.Eltwise_454"
  top: "caffe.Eltwise_464"
}
layer {
  name: "caffe.BN_465"
  type: "BN"
  bottom: "caffe.Eltwise_464"
  top: "caffe.BN_465"
  param {
    lr_mult: 1
    decay_mult: 0
  }
  param {
    lr_mult: 1
    decay_mult: 0
  }
  bn_param { frozen: true
    slope_filler {
      value: 1
    }
    bias_filler {
      value: 0
    }
  }
}
layer {
  name: "caffe.ReLU_466"
  type: "ReLU"
  bottom: "caffe.BN_465"
  top: "caffe.BN_465"
}
layer {
  name: "caffe.SpatialConvolution_467"
  type: "Convolution"
  bottom: "caffe.BN_465"
  top: "caffe.SpatialConvolution_467"
  convolution_param {
    num_output: 256
    bias_term: false
    pad_h: 0
    pad_w: 0
    kernel_h: 1
    kernel_w: 1
    stride_h: 1
    stride_w: 1
  }
}
layer {
  name: "caffe.BN_468"
  type: "BN"
  bottom: "caffe.SpatialConvolution_467"
  top: "caffe.BN_468"
  param {
    lr_mult: 1
    decay_mult: 0
  }
  param {
    lr_mult: 1
    decay_mult: 0
  }
  bn_param { frozen: true
    slope_filler {
      value: 1
    }
    bias_filler {
      value: 0
    }
  }
}
layer {
  name: "caffe.ReLU_469"
  type: "ReLU"
  bottom: "caffe.BN_468"
  top: "caffe.BN_468"
}
layer {
  name: "caffe.SpatialConvolution_470"
  type: "Convolution"
  bottom: "caffe.BN_468"
  top: "caffe.SpatialConvolution_470"
  convolution_param {
    num_output: 256
    bias_term: false
    pad_h: 1
    pad_w: 1
    kernel_h: 3
    kernel_w: 3
    stride_h: 1
    stride_w: 1
  }
}
layer {
  name: "caffe.BN_471"
  type: "BN"
  bottom: "caffe.SpatialConvolution_470"
  top: "caffe.BN_471"
  param {
    lr_mult: 1
    decay_mult: 0
  }
  param {
    lr_mult: 1
    decay_mult: 0
  }
  bn_param { frozen: true
    slope_filler {
      value: 1
    }
    bias_filler {
      value: 0
    }
  }
}
layer {
  name: "caffe.ReLU_472"
  type: "ReLU"
  bottom: "caffe.BN_471"
  top: "caffe.BN_471"
}
layer {
  name: "caffe.SpatialConvolution_473"
  type: "Convolution"
  bottom: "caffe.BN_471"
  top: "caffe.SpatialConvolution_473"
  convolution_param {
    num_output: 1024
    bias_term: false
    pad_h: 0
    pad_w: 0
    kernel_h: 1
    kernel_w: 1
    stride_h: 1
    stride_w: 1
  }
}
layer {
  name: "caffe.Eltwise_474"
  type: "Eltwise"
  bottom: "caffe.SpatialConvolution_473"
  bottom: "caffe.Eltwise_464"
  top: "caffe.Eltwise_474"
}
layer {
  name: "caffe.BN_475"
  type: "BN"
  bottom: "caffe.Eltwise_474"
  top: "caffe.BN_475"
  param {
    lr_mult: 1
    decay_mult: 0
  }
  param {
    lr_mult: 1
    decay_mult: 0
  }
  bn_param { frozen: true
    slope_filler {
      value: 1
    }
    bias_filler {
      value: 0
    }
  }
}
layer {
  name: "caffe.ReLU_476"
  type: "ReLU"
  bottom: "caffe.BN_475"
  top: "caffe.BN_475"
}
layer {
  name: "caffe.SpatialConvolution_477"
  type: "Convolution"
  bottom: "caffe.BN_475"
  top: "caffe.SpatialConvolution_477"
  convolution_param {
    num_output: 256
    bias_term: false
    pad_h: 0
    pad_w: 0
    kernel_h: 1
    kernel_w: 1
    stride_h: 1
    stride_w: 1
  }
}
layer {
  name: "caffe.BN_478"
  type: "BN"
  bottom: "caffe.SpatialConvolution_477"
  top: "caffe.BN_478"
  param {
    lr_mult: 1
    decay_mult: 0
  }
  param {
    lr_mult: 1
    decay_mult: 0
  }
  bn_param { frozen: true
    slope_filler {
      value: 1
    }
    bias_filler {
      value: 0
    }
  }
}
layer {
  name: "caffe.ReLU_479"
  type: "ReLU"
  bottom: "caffe.BN_478"
  top: "caffe.BN_478"
}
layer {
  name: "caffe.SpatialConvolution_480"
  type: "Convolution"
  bottom: "caffe.BN_478"
  top: "caffe.SpatialConvolution_480"
  convolution_param {
    num_output: 256
    bias_term: false
    pad_h: 1
    pad_w: 1
    kernel_h: 3
    kernel_w: 3
    stride_h: 1
    stride_w: 1
  }
}
layer {
  name: "caffe.BN_481"
  type: "BN"
  bottom: "caffe.SpatialConvolution_480"
  top: "caffe.BN_481"
  param {
    lr_mult: 1
    decay_mult: 0
  }
  param {
    lr_mult: 1
    decay_mult: 0
  }
  bn_param { frozen: true
    slope_filler {
      value: 1
    }
    bias_filler {
      value: 0
    }
  }
}
layer {
  name: "caffe.ReLU_482"
  type: "ReLU"
  bottom: "caffe.BN_481"
  top: "caffe.BN_481"
}
layer {
  name: "caffe.SpatialConvolution_483"
  type: "Convolution"
  bottom: "caffe.BN_481"
  top: "caffe.SpatialConvolution_483"
  convolution_param {
    num_output: 1024
    bias_term: false
    pad_h: 0
    pad_w: 0
    kernel_h: 1
    kernel_w: 1
    stride_h: 1
    stride_w: 1
  }
}
layer {
  name: "caffe.Eltwise_484"
  type: "Eltwise"
  bottom: "caffe.SpatialConvolution_483"
  bottom: "caffe.Eltwise_474"
  top: "caffe.Eltwise_484"
}
layer {
  name: "caffe.BN_485"
  type: "BN"
  bottom: "caffe.Eltwise_484"
  top: "caffe.BN_485"
  param {
    lr_mult: 1
    decay_mult: 0
  }
  param {
    lr_mult: 1
    decay_mult: 0
  }
  bn_param { frozen: true
    slope_filler {
      value: 1
    }
    bias_filler {
      value: 0
    }
  }
}
layer {
  name: "caffe.ReLU_486"
  type: "ReLU"
  bottom: "caffe.BN_485"
  top: "caffe.BN_485"
}
layer {
  name: "caffe.SpatialConvolution_487"
  type: "Convolution"
  bottom: "caffe.BN_485"
  top: "caffe.SpatialConvolution_487"
  convolution_param {
    num_output: 256
    bias_term: false
    pad_h: 0
    pad_w: 0
    kernel_h: 1
    kernel_w: 1
    stride_h: 1
    stride_w: 1
  }
}
layer {
  name: "caffe.BN_488"
  type: "BN"
  bottom: "caffe.SpatialConvolution_487"
  top: "caffe.BN_488"
  param {
    lr_mult: 1
    decay_mult: 0
  }
  param {
    lr_mult: 1
    decay_mult: 0
  }
  bn_param { frozen: true
    slope_filler {
      value: 1
    }
    bias_filler {
      value: 0
    }
  }
}
layer {
  name: "caffe.ReLU_489"
  type: "ReLU"
  bottom: "caffe.BN_488"
  top: "caffe.BN_488"
}
layer {
  name: "caffe.SpatialConvolution_490"
  type: "Convolution"
  bottom: "caffe.BN_488"
  top: "caffe.SpatialConvolution_490"
  convolution_param {
    num_output: 256
    bias_term: false
    pad_h: 1
    pad_w: 1
    kernel_h: 3
    kernel_w: 3
    stride_h: 1
    stride_w: 1
  }
}
layer {
  name: "caffe.BN_491"
  type: "BN"
  bottom: "caffe.SpatialConvolution_490"
  top: "caffe.BN_491"
  param {
    lr_mult: 1
    decay_mult: 0
  }
  param {
    lr_mult: 1
    decay_mult: 0
  }
  bn_param { frozen: true
    slope_filler {
      value: 1
    }
    bias_filler {
      value: 0
    }
  }
}
layer {
  name: "caffe.ReLU_492"
  type: "ReLU"
  bottom: "caffe.BN_491"
  top: "caffe.BN_491"
}
layer {
  name: "caffe.SpatialConvolution_493"
  type: "Convolution"
  bottom: "caffe.BN_491"
  top: "caffe.SpatialConvolution_493"
  convolution_param {
    num_output: 1024
    bias_term: false
    pad_h: 0
    pad_w: 0
    kernel_h: 1
    kernel_w: 1
    stride_h: 1
    stride_w: 1
  }
}
layer {
  name: "caffe.Eltwise_494"
  type: "Eltwise"
  bottom: "caffe.SpatialConvolution_493"
  bottom: "caffe.Eltwise_484"
  top: "caffe.Eltwise_494"
}
layer {
  name: "caffe.BN_495"
  type: "BN"
  bottom: "caffe.Eltwise_494"
  top: "caffe.BN_495"
  param {
    lr_mult: 1
    decay_mult: 0
  }
  param {
    lr_mult: 1
    decay_mult: 0
  }
  bn_param { frozen: true
    slope_filler {
      value: 1
    }
    bias_filler {
      value: 0
    }
  }
}
layer {
  name: "caffe.ReLU_496"
  type: "ReLU"
  bottom: "caffe.BN_495"
  top: "caffe.BN_495"
}
layer {
  name: "caffe.SpatialConvolution_497"
  type: "Convolution"
  bottom: "caffe.BN_495"
  top: "caffe.SpatialConvolution_497"
  convolution_param {
    num_output: 256
    bias_term: false
    pad_h: 0
    pad_w: 0
    kernel_h: 1
    kernel_w: 1
    stride_h: 1
    stride_w: 1
  }
}
layer {
  name: "caffe.BN_498"
  type: "BN"
  bottom: "caffe.SpatialConvolution_497"
  top: "caffe.BN_498"
  param {
    lr_mult: 1
    decay_mult: 0
  }
  param {
    lr_mult: 1
    decay_mult: 0
  }
  bn_param { frozen: true
    slope_filler {
      value: 1
    }
    bias_filler {
      value: 0
    }
  }
}
layer {
  name: "caffe.ReLU_499"
  type: "ReLU"
  bottom: "caffe.BN_498"
  top: "caffe.BN_498"
}
layer {
  name: "caffe.SpatialConvolution_500"
  type: "Convolution"
  bottom: "caffe.BN_498"
  top: "caffe.SpatialConvolution_500"
  convolution_param {
    num_output: 256
    bias_term: false
    pad_h: 1
    pad_w: 1
    kernel_h: 3
    kernel_w: 3
    stride_h: 1
    stride_w: 1
  }
}
layer {
  name: "caffe.BN_501"
  type: "BN"
  bottom: "caffe.SpatialConvolution_500"
  top: "caffe.BN_501"
  param {
    lr_mult: 1
    decay_mult: 0
  }
  param {
    lr_mult: 1
    decay_mult: 0
  }
  bn_param { frozen: true
    slope_filler {
      value: 1
    }
    bias_filler {
      value: 0
    }
  }
}
layer {
  name: "caffe.ReLU_502"
  type: "ReLU"
  bottom: "caffe.BN_501"
  top: "caffe.BN_501"
}
layer {
  name: "caffe.SpatialConvolution_503"
  type: "Convolution"
  bottom: "caffe.BN_501"
  top: "caffe.SpatialConvolution_503"
  convolution_param {
    num_output: 1024
    bias_term: false
    pad_h: 0
    pad_w: 0
    kernel_h: 1
    kernel_w: 1
    stride_h: 1
    stride_w: 1
  }
}
layer {
  name: "caffe.Eltwise_504"
  type: "Eltwise"
  bottom: "caffe.SpatialConvolution_503"
  bottom: "caffe.Eltwise_494"
  top: "caffe.Eltwise_504"
}
layer {
  name: "caffe.BN_505"
  type: "BN"
  bottom: "caffe.Eltwise_504"
  top: "caffe.BN_505"
  param {
    lr_mult: 1
    decay_mult: 0
  }
  param {
    lr_mult: 1
    decay_mult: 0
  }
  bn_param { frozen: true
    slope_filler {
      value: 1
    }
    bias_filler {
      value: 0
    }
  }
}
layer {
  name: "caffe.ReLU_506"
  type: "ReLU"
  bottom: "caffe.BN_505"
  top: "caffe.BN_505"
}
layer {
  name: "caffe.SpatialConvolution_507"
  type: "Convolution"
  bottom: "caffe.BN_505"
  top: "caffe.SpatialConvolution_507"
  convolution_param {
    num_output: 256
    bias_term: false
    pad_h: 0
    pad_w: 0
    kernel_h: 1
    kernel_w: 1
    stride_h: 1
    stride_w: 1
  }
}
layer {
  name: "caffe.BN_508"
  type: "BN"
  bottom: "caffe.SpatialConvolution_507"
  top: "caffe.BN_508"
  param {
    lr_mult: 1
    decay_mult: 0
  }
  param {
    lr_mult: 1
    decay_mult: 0
  }
  bn_param { frozen: true
    slope_filler {
      value: 1
    }
    bias_filler {
      value: 0
    }
  }
}
layer {
  name: "caffe.ReLU_509"
  type: "ReLU"
  bottom: "caffe.BN_508"
  top: "caffe.BN_508"
}
layer {
  name: "caffe.SpatialConvolution_510"
  type: "Convolution"
  bottom: "caffe.BN_508"
  top: "caffe.SpatialConvolution_510"
  convolution_param {
    num_output: 256
    bias_term: false
    pad_h: 1
    pad_w: 1
    kernel_h: 3
    kernel_w: 3
    stride_h: 1
    stride_w: 1
  }
}
layer {
  name: "caffe.BN_511"
  type: "BN"
  bottom: "caffe.SpatialConvolution_510"
  top: "caffe.BN_511"
  param {
    lr_mult: 1
    decay_mult: 0
  }
  param {
    lr_mult: 1
    decay_mult: 0
  }
  bn_param { frozen: true
    slope_filler {
      value: 1
    }
    bias_filler {
      value: 0
    }
  }
}
layer {
  name: "caffe.ReLU_512"
  type: "ReLU"
  bottom: "caffe.BN_511"
  top: "caffe.BN_511"
}
layer {
  name: "caffe.SpatialConvolution_513"
  type: "Convolution"
  bottom: "caffe.BN_511"
  top: "caffe.SpatialConvolution_513"
  convolution_param {
    num_output: 1024
    bias_term: false
    pad_h: 0
    pad_w: 0
    kernel_h: 1
    kernel_w: 1
    stride_h: 1
    stride_w: 1
  }
}
layer {
  name: "caffe.Eltwise_514"
  type: "Eltwise"
  bottom: "caffe.SpatialConvolution_513"
  bottom: "caffe.Eltwise_504"
  top: "caffe.Eltwise_514"
}
layer {
  name: "caffe.BN_515"
  type: "BN"
  bottom: "caffe.Eltwise_514"
  top: "caffe.BN_515"
  param {
    lr_mult: 1
    decay_mult: 0
  }
  param {
    lr_mult: 1
    decay_mult: 0
  }
  bn_param { frozen: true
    slope_filler {
      value: 1
    }
    bias_filler {
      value: 0
    }
  }
}
layer {
  name: "caffe.ReLU_516"
  type: "ReLU"
  bottom: "caffe.BN_515"
  top: "caffe.BN_515"
}
layer {
  name: "caffe.SpatialConvolution_517"
  type: "Convolution"
  bottom: "caffe.BN_515"
  top: "caffe.SpatialConvolution_517"
  convolution_param {
    num_output: 256
    bias_term: false
    pad_h: 0
    pad_w: 0
    kernel_h: 1
    kernel_w: 1
    stride_h: 1
    stride_w: 1
  }
}
layer {
  name: "caffe.BN_518"
  type: "BN"
  bottom: "caffe.SpatialConvolution_517"
  top: "caffe.BN_518"
  param {
    lr_mult: 1
    decay_mult: 0
  }
  param {
    lr_mult: 1
    decay_mult: 0
  }
  bn_param { frozen: true
    slope_filler {
      value: 1
    }
    bias_filler {
      value: 0
    }
  }
}
layer {
  name: "caffe.ReLU_519"
  type: "ReLU"
  bottom: "caffe.BN_518"
  top: "caffe.BN_518"
}
layer {
  name: "caffe.SpatialConvolution_520"
  type: "Convolution"
  bottom: "caffe.BN_518"
  top: "caffe.SpatialConvolution_520"
  convolution_param {
    num_output: 256
    bias_term: false
    pad_h: 1
    pad_w: 1
    kernel_h: 3
    kernel_w: 3
    stride_h: 1
    stride_w: 1
  }
}
layer {
  name: "caffe.BN_521"
  type: "BN"
  bottom: "caffe.SpatialConvolution_520"
  top: "caffe.BN_521"
  param {
    lr_mult: 1
    decay_mult: 0
  }
  param {
    lr_mult: 1
    decay_mult: 0
  }
  bn_param { frozen: true
    slope_filler {
      value: 1
    }
    bias_filler {
      value: 0
    }
  }
}
layer {
  name: "caffe.ReLU_522"
  type: "ReLU"
  bottom: "caffe.BN_521"
  top: "caffe.BN_521"
}
layer {
  name: "caffe.SpatialConvolution_523"
  type: "Convolution"
  bottom: "caffe.BN_521"
  top: "caffe.SpatialConvolution_523"
  convolution_param {
    num_output: 1024
    bias_term: false
    pad_h: 0
    pad_w: 0
    kernel_h: 1
    kernel_w: 1
    stride_h: 1
    stride_w: 1
  }
}
layer {
  name: "caffe.Eltwise_524"
  type: "Eltwise"
  bottom: "caffe.SpatialConvolution_523"
  bottom: "caffe.Eltwise_514"
  top: "caffe.Eltwise_524"
}
layer {
  name: "caffe.BN_525"
  type: "BN"
  bottom: "caffe.Eltwise_524"
  top: "caffe.BN_525"
  param {
    lr_mult: 1
    decay_mult: 0
  }
  param {
    lr_mult: 1
    decay_mult: 0
  }
  bn_param { frozen: true
    slope_filler {
      value: 1
    }
    bias_filler {
      value: 0
    }
  }
}
layer {
  name: "caffe.ReLU_526"
  type: "ReLU"
  bottom: "caffe.BN_525"
  top: "caffe.BN_525"
}
layer {
  name: "caffe.SpatialConvolution_527"
  type: "Convolution"
  bottom: "caffe.BN_525"
  top: "caffe.SpatialConvolution_527"
  convolution_param {
    num_output: 256
    bias_term: false
    pad_h: 0
    pad_w: 0
    kernel_h: 1
    kernel_w: 1
    stride_h: 1
    stride_w: 1
  }
}
layer {
  name: "caffe.BN_528"
  type: "BN"
  bottom: "caffe.SpatialConvolution_527"
  top: "caffe.BN_528"
  param {
    lr_mult: 1
    decay_mult: 0
  }
  param {
    lr_mult: 1
    decay_mult: 0
  }
  bn_param { frozen: true
    slope_filler {
      value: 1
    }
    bias_filler {
      value: 0
    }
  }
}
layer {
  name: "caffe.ReLU_529"
  type: "ReLU"
  bottom: "caffe.BN_528"
  top: "caffe.BN_528"
}
layer {
  name: "caffe.SpatialConvolution_530"
  type: "Convolution"
  bottom: "caffe.BN_528"
  top: "caffe.SpatialConvolution_530"
  convolution_param {
    num_output: 256
    bias_term: false
    pad_h: 1
    pad_w: 1
    kernel_h: 3
    kernel_w: 3
    stride_h: 1
    stride_w: 1
  }
}
layer {
  name: "caffe.BN_531"
  type: "BN"
  bottom: "caffe.SpatialConvolution_530"
  top: "caffe.BN_531"
  param {
    lr_mult: 1
    decay_mult: 0
  }
  param {
    lr_mult: 1
    decay_mult: 0
  }
  bn_param { frozen: true
    slope_filler {
      value: 1
    }
    bias_filler {
      value: 0
    }
  }
}
layer {
  name: "caffe.ReLU_532"
  type: "ReLU"
  bottom: "caffe.BN_531"
  top: "caffe.BN_531"
}
layer {
  name: "caffe.SpatialConvolution_533"
  type: "Convolution"
  bottom: "caffe.BN_531"
  top: "caffe.SpatialConvolution_533"
  convolution_param {
    num_output: 1024
    bias_term: false
    pad_h: 0
    pad_w: 0
    kernel_h: 1
    kernel_w: 1
    stride_h: 1
    stride_w: 1
  }
}
layer {
  name: "caffe.Eltwise_534"
  type: "Eltwise"
  bottom: "caffe.SpatialConvolution_533"
  bottom: "caffe.Eltwise_524"
  top: "caffe.Eltwise_534"
}
layer {
  name: "caffe.BN_535"
  type: "BN"
  bottom: "caffe.Eltwise_534"
  top: "caffe.BN_535"
  param {
    lr_mult: 1
    decay_mult: 0
  }
  param {
    lr_mult: 1
    decay_mult: 0
  }
  bn_param { frozen: true
    slope_filler {
      value: 1
    }
    bias_filler {
      value: 0
    }
  }
}
layer {
  name: "caffe.ReLU_536"
  type: "ReLU"
  bottom: "caffe.BN_535"
  top: "caffe.BN_535"
}
layer {
  name: "caffe.SpatialConvolution_537"
  type: "Convolution"
  bottom: "caffe.BN_535"
  top: "caffe.SpatialConvolution_537"
  convolution_param {
    num_output: 256
    bias_term: false
    pad_h: 0
    pad_w: 0
    kernel_h: 1
    kernel_w: 1
    stride_h: 1
    stride_w: 1
  }
}
layer {
  name: "caffe.BN_538"
  type: "BN"
  bottom: "caffe.SpatialConvolution_537"
  top: "caffe.BN_538"
  param {
    lr_mult: 1
    decay_mult: 0
  }
  param {
    lr_mult: 1
    decay_mult: 0
  }
  bn_param { frozen: true
    slope_filler {
      value: 1
    }
    bias_filler {
      value: 0
    }
  }
}
layer {
  name: "caffe.ReLU_539"
  type: "ReLU"
  bottom: "caffe.BN_538"
  top: "caffe.BN_538"
}
layer {
  name: "caffe.SpatialConvolution_540"
  type: "Convolution"
  bottom: "caffe.BN_538"
  top: "caffe.SpatialConvolution_540"
  convolution_param {
    num_output: 256
    bias_term: false
    pad_h: 1
    pad_w: 1
    kernel_h: 3
    kernel_w: 3
    stride_h: 1
    stride_w: 1
  }
}
layer {
  name: "caffe.BN_541"
  type: "BN"
  bottom: "caffe.SpatialConvolution_540"
  top: "caffe.BN_541"
  param {
    lr_mult: 1
    decay_mult: 0
  }
  param {
    lr_mult: 1
    decay_mult: 0
  }
  bn_param { frozen: true
    slope_filler {
      value: 1
    }
    bias_filler {
      value: 0
    }
  }
}
layer {
  name: "caffe.ReLU_542"
  type: "ReLU"
  bottom: "caffe.BN_541"
  top: "caffe.BN_541"
}
layer {
  name: "caffe.SpatialConvolution_543"
  type: "Convolution"
  bottom: "caffe.BN_541"
  top: "caffe.SpatialConvolution_543"
  convolution_param {
    num_output: 1024
    bias_term: false
    pad_h: 0
    pad_w: 0
    kernel_h: 1
    kernel_w: 1
    stride_h: 1
    stride_w: 1
  }
}
layer {
  name: "caffe.Eltwise_544"
  type: "Eltwise"
  bottom: "caffe.SpatialConvolution_543"
  bottom: "caffe.Eltwise_534"
  top: "caffe.Eltwise_544"
}
layer {
  name: "caffe.BN_545"
  type: "BN"
  bottom: "caffe.Eltwise_544"
  top: "caffe.BN_545"
  param {
    lr_mult: 1
    decay_mult: 0
  }
  param {
    lr_mult: 1
    decay_mult: 0
  }
  bn_param { frozen: true
    slope_filler {
      value: 1
    }
    bias_filler {
      value: 0
    }
  }
}
layer {
  name: "caffe.ReLU_546"
  type: "ReLU"
  bottom: "caffe.BN_545"
  top: "caffe.BN_545"
}
layer {
  name: "caffe.SpatialConvolution_547"
  type: "Convolution"
  bottom: "caffe.BN_545"
  top: "caffe.SpatialConvolution_547"
  convolution_param {
    num_output: 256
    bias_term: false
    pad_h: 0
    pad_w: 0
    kernel_h: 1
    kernel_w: 1
    stride_h: 1
    stride_w: 1
  }
}
layer {
  name: "caffe.BN_548"
  type: "BN"
  bottom: "caffe.SpatialConvolution_547"
  top: "caffe.BN_548"
  param {
    lr_mult: 1
    decay_mult: 0
  }
  param {
    lr_mult: 1
    decay_mult: 0
  }
  bn_param { frozen: true
    slope_filler {
      value: 1
    }
    bias_filler {
      value: 0
    }
  }
}
layer {
  name: "caffe.ReLU_549"
  type: "ReLU"
  bottom: "caffe.BN_548"
  top: "caffe.BN_548"
}
layer {
  name: "caffe.SpatialConvolution_550"
  type: "Convolution"
  bottom: "caffe.BN_548"
  top: "caffe.SpatialConvolution_550"
  convolution_param {
    num_output: 256
    bias_term: false
    pad_h: 1
    pad_w: 1
    kernel_h: 3
    kernel_w: 3
    stride_h: 1
    stride_w: 1
  }
}
layer {
  name: "caffe.BN_551"
  type: "BN"
  bottom: "caffe.SpatialConvolution_550"
  top: "caffe.BN_551"
  param {
    lr_mult: 1
    decay_mult: 0
  }
  param {
    lr_mult: 1
    decay_mult: 0
  }
  bn_param { frozen: true
    slope_filler {
      value: 1
    }
    bias_filler {
      value: 0
    }
  }
}
layer {
  name: "caffe.ReLU_552"
  type: "ReLU"
  bottom: "caffe.BN_551"
  top: "caffe.BN_551"
}
layer {
  name: "caffe.SpatialConvolution_553"
  type: "Convolution"
  bottom: "caffe.BN_551"
  top: "caffe.SpatialConvolution_553"
  convolution_param {
    num_output: 1024
    bias_term: false
    pad_h: 0
    pad_w: 0
    kernel_h: 1
    kernel_w: 1
    stride_h: 1
    stride_w: 1
  }
}
layer {
  name: "caffe.Eltwise_554"
  type: "Eltwise"
  bottom: "caffe.SpatialConvolution_553"
  bottom: "caffe.Eltwise_544"
  top: "caffe.Eltwise_554"
}
layer {
  name: "caffe.BN_555"
  type: "BN"
  bottom: "caffe.Eltwise_554"
  top: "caffe.BN_555"
  param {
    lr_mult: 1
    decay_mult: 0
  }
  param {
    lr_mult: 1
    decay_mult: 0
  }
  bn_param { frozen: true
    slope_filler {
      value: 1
    }
    bias_filler {
      value: 0
    }
  }
}
layer {
  name: "caffe.ReLU_556"
  type: "ReLU"
  bottom: "caffe.BN_555"
  top: "caffe.BN_555"
}
layer {
  name: "caffe.SpatialConvolution_557"
  type: "Convolution"
  bottom: "caffe.BN_555"
  top: "caffe.SpatialConvolution_557"
  convolution_param {
    num_output: 256
    bias_term: false
    pad_h: 0
    pad_w: 0
    kernel_h: 1
    kernel_w: 1
    stride_h: 1
    stride_w: 1
  }
}
layer {
  name: "caffe.BN_558"
  type: "BN"
  bottom: "caffe.SpatialConvolution_557"
  top: "caffe.BN_558"
  param {
    lr_mult: 1
    decay_mult: 0
  }
  param {
    lr_mult: 1
    decay_mult: 0
  }
  bn_param { frozen: true
    slope_filler {
      value: 1
    }
    bias_filler {
      value: 0
    }
  }
}
layer {
  name: "caffe.ReLU_559"
  type: "ReLU"
  bottom: "caffe.BN_558"
  top: "caffe.BN_558"
}
layer {
  name: "caffe.SpatialConvolution_560"
  type: "Convolution"
  bottom: "caffe.BN_558"
  top: "caffe.SpatialConvolution_560"
  convolution_param {
    num_output: 256
    bias_term: false
    pad_h: 1
    pad_w: 1
    kernel_h: 3
    kernel_w: 3
    stride_h: 1
    stride_w: 1
  }
}
layer {
  name: "caffe.BN_561"
  type: "BN"
  bottom: "caffe.SpatialConvolution_560"
  top: "caffe.BN_561"
  param {
    lr_mult: 1
    decay_mult: 0
  }
  param {
    lr_mult: 1
    decay_mult: 0
  }
  bn_param { frozen: true
    slope_filler {
      value: 1
    }
    bias_filler {
      value: 0
    }
  }
}
layer {
  name: "caffe.ReLU_562"
  type: "ReLU"
  bottom: "caffe.BN_561"
  top: "caffe.BN_561"
}
layer {
  name: "caffe.SpatialConvolution_563"
  type: "Convolution"
  bottom: "caffe.BN_561"
  top: "caffe.SpatialConvolution_563"
  convolution_param {
    num_output: 1024
    bias_term: false
    pad_h: 0
    pad_w: 0
    kernel_h: 1
    kernel_w: 1
    stride_h: 1
    stride_w: 1
  }
}
layer {
  name: "caffe.Eltwise_564"
  type: "Eltwise"
  bottom: "caffe.SpatialConvolution_563"
  bottom: "caffe.Eltwise_554"
  top: "caffe.Eltwise_564"
}
layer {
  name: "caffe.BN_565"
  type: "BN"
  bottom: "caffe.Eltwise_564"
  top: "caffe.BN_565"
  param {
    lr_mult: 1
    decay_mult: 0
  }
  param {
    lr_mult: 1
    decay_mult: 0
  }
  bn_param { frozen: true
    slope_filler {
      value: 1
    }
    bias_filler {
      value: 0
    }
  }
}
layer {
  name: "caffe.ReLU_566"
  type: "ReLU"
  bottom: "caffe.BN_565"
  top: "caffe.BN_565"
}
layer {
  name: "caffe.SpatialConvolution_567"
  type: "Convolution"
  bottom: "caffe.BN_565"
  top: "caffe.SpatialConvolution_567"
  convolution_param {
    num_output: 256
    bias_term: false
    pad_h: 0
    pad_w: 0
    kernel_h: 1
    kernel_w: 1
    stride_h: 1
    stride_w: 1
  }
}
layer {
  name: "caffe.BN_568"
  type: "BN"
  bottom: "caffe.SpatialConvolution_567"
  top: "caffe.BN_568"
  param {
    lr_mult: 1
    decay_mult: 0
  }
  param {
    lr_mult: 1
    decay_mult: 0
  }
  bn_param { frozen: true
    slope_filler {
      value: 1
    }
    bias_filler {
      value: 0
    }
  }
}
layer {
  name: "caffe.ReLU_569"
  type: "ReLU"
  bottom: "caffe.BN_568"
  top: "caffe.BN_568"
}
layer {
  name: "caffe.SpatialConvolution_570"
  type: "Convolution"
  bottom: "caffe.BN_568"
  top: "caffe.SpatialConvolution_570"
  convolution_param {
    num_output: 256
    bias_term: false
    pad_h: 1
    pad_w: 1
    kernel_h: 3
    kernel_w: 3
    stride_h: 1
    stride_w: 1
  }
}
layer {
  name: "caffe.BN_571"
  type: "BN"
  bottom: "caffe.SpatialConvolution_570"
  top: "caffe.BN_571"
  param {
    lr_mult: 1
    decay_mult: 0
  }
  param {
    lr_mult: 1
    decay_mult: 0
  }
  bn_param { frozen: true
    slope_filler {
      value: 1
    }
    bias_filler {
      value: 0
    }
  }
}
layer {
  name: "caffe.ReLU_572"
  type: "ReLU"
  bottom: "caffe.BN_571"
  top: "caffe.BN_571"
}
layer {
  name: "caffe.SpatialConvolution_573"
  type: "Convolution"
  bottom: "caffe.BN_571"
  top: "caffe.SpatialConvolution_573"
  convolution_param {
    num_output: 1024
    bias_term: false
    pad_h: 0
    pad_w: 0
    kernel_h: 1
    kernel_w: 1
    stride_h: 1
    stride_w: 1
  }
}
layer {
  name: "caffe.Eltwise_574"
  type: "Eltwise"
  bottom: "caffe.SpatialConvolution_573"
  bottom: "caffe.Eltwise_564"
  top: "caffe.Eltwise_574"
}
layer {
  name: "caffe.BN_575"
  type: "BN"
  bottom: "caffe.Eltwise_574"
  top: "caffe.BN_575"
  param {
    lr_mult: 1
    decay_mult: 0
  }
  param {
    lr_mult: 1
    decay_mult: 0
  }
  bn_param { frozen: true
    slope_filler {
      value: 1
    }
    bias_filler {
      value: 0
    }
  }
}
layer {
  name: "caffe.ReLU_576"
  type: "ReLU"
  bottom: "caffe.BN_575"
  top: "caffe.BN_575"
}
layer {
  name: "caffe.SpatialConvolution_577"
  type: "Convolution"
  bottom: "caffe.BN_575"
  top: "caffe.SpatialConvolution_577"
  convolution_param {
    num_output: 256
    bias_term: false
    pad_h: 0
    pad_w: 0
    kernel_h: 1
    kernel_w: 1
    stride_h: 1
    stride_w: 1
  }
}
layer {
  name: "caffe.BN_578"
  type: "BN"
  bottom: "caffe.SpatialConvolution_577"
  top: "caffe.BN_578"
  param {
    lr_mult: 1
    decay_mult: 0
  }
  param {
    lr_mult: 1
    decay_mult: 0
  }
  bn_param { frozen: true
    slope_filler {
      value: 1
    }
    bias_filler {
      value: 0
    }
  }
}
layer {
  name: "caffe.ReLU_579"
  type: "ReLU"
  bottom: "caffe.BN_578"
  top: "caffe.BN_578"
}
layer {
  name: "caffe.SpatialConvolution_580"
  type: "Convolution"
  bottom: "caffe.BN_578"
  top: "caffe.SpatialConvolution_580"
  convolution_param {
    num_output: 256
    bias_term: false
    pad_h: 1
    pad_w: 1
    kernel_h: 3
    kernel_w: 3
    stride_h: 1
    stride_w: 1
  }
}
layer {
  name: "caffe.BN_581"
  type: "BN"
  bottom: "caffe.SpatialConvolution_580"
  top: "caffe.BN_581"
  param {
    lr_mult: 1
    decay_mult: 0
  }
  param {
    lr_mult: 1
    decay_mult: 0
  }
  bn_param { frozen: true
    slope_filler {
      value: 1
    }
    bias_filler {
      value: 0
    }
  }
}
layer {
  name: "caffe.ReLU_582"
  type: "ReLU"
  bottom: "caffe.BN_581"
  top: "caffe.BN_581"
}
layer {
  name: "caffe.SpatialConvolution_583"
  type: "Convolution"
  bottom: "caffe.BN_581"
  top: "caffe.SpatialConvolution_583"
  convolution_param {
    num_output: 1024
    bias_term: false
    pad_h: 0
    pad_w: 0
    kernel_h: 1
    kernel_w: 1
    stride_h: 1
    stride_w: 1
  }
}
layer {
  name: "caffe.Eltwise_584"
  type: "Eltwise"
  bottom: "caffe.SpatialConvolution_583"
  bottom: "caffe.Eltwise_574"
  top: "caffe.Eltwise_584"
}
layer {
  name: "caffe.BN_585"
  type: "BN"
  bottom: "caffe.Eltwise_584"
  top: "caffe.BN_585"
  param {
    lr_mult: 1
    decay_mult: 0
  }
  param {
    lr_mult: 1
    decay_mult: 0
  }
  bn_param { frozen: true
    slope_filler {
      value: 1
    }
    bias_filler {
      value: 0
    }
  }
}
layer {
  name: "caffe.ReLU_586"
  type: "ReLU"
  bottom: "caffe.BN_585"
  top: "caffe.BN_585"
}
layer {
  name: "caffe.SpatialConvolution_587"
  type: "Convolution"
  bottom: "caffe.BN_585"
  top: "caffe.SpatialConvolution_587"
  convolution_param {
    num_output: 256
    bias_term: false
    pad_h: 0
    pad_w: 0
    kernel_h: 1
    kernel_w: 1
    stride_h: 1
    stride_w: 1
  }
}
layer {
  name: "caffe.BN_588"
  type: "BN"
  bottom: "caffe.SpatialConvolution_587"
  top: "caffe.BN_588"
  param {
    lr_mult: 1
    decay_mult: 0
  }
  param {
    lr_mult: 1
    decay_mult: 0
  }
  bn_param { frozen: true
    slope_filler {
      value: 1
    }
    bias_filler {
      value: 0
    }
  }
}
layer {
  name: "caffe.ReLU_589"
  type: "ReLU"
  bottom: "caffe.BN_588"
  top: "caffe.BN_588"
}
layer {
  name: "caffe.SpatialConvolution_590"
  type: "Convolution"
  bottom: "caffe.BN_588"
  top: "caffe.SpatialConvolution_590"
  convolution_param {
    num_output: 256
    bias_term: false
    pad_h: 1
    pad_w: 1
    kernel_h: 3
    kernel_w: 3
    stride_h: 1
    stride_w: 1
  }
}
layer {
  name: "caffe.BN_591"
  type: "BN"
  bottom: "caffe.SpatialConvolution_590"
  top: "caffe.BN_591"
  param {
    lr_mult: 1
    decay_mult: 0
  }
  param {
    lr_mult: 1
    decay_mult: 0
  }
  bn_param { frozen: true
    slope_filler {
      value: 1
    }
    bias_filler {
      value: 0
    }
  }
}
layer {
  name: "caffe.ReLU_592"
  type: "ReLU"
  bottom: "caffe.BN_591"
  top: "caffe.BN_591"
}
layer {
  name: "caffe.SpatialConvolution_593"
  type: "Convolution"
  bottom: "caffe.BN_591"
  top: "caffe.SpatialConvolution_593"
  convolution_param {
    num_output: 1024
    bias_term: false
    pad_h: 0
    pad_w: 0
    kernel_h: 1
    kernel_w: 1
    stride_h: 1
    stride_w: 1
  }
}
layer {
  name: "caffe.Eltwise_594"
  type: "Eltwise"
  bottom: "caffe.SpatialConvolution_593"
  bottom: "caffe.Eltwise_584"
  top: "caffe.Eltwise_594"
}
layer {
  name: "caffe.BN_595"
  type: "BN"
  bottom: "caffe.Eltwise_594"
  top: "caffe.BN_595"
  param {
    lr_mult: 1
    decay_mult: 0
  }
  param {
    lr_mult: 1
    decay_mult: 0
  }
  bn_param { frozen: true
    slope_filler {
      value: 1
    }
    bias_filler {
      value: 0
    }
  }
}
layer {
  name: "caffe.ReLU_596"
  type: "ReLU"
  bottom: "caffe.BN_595"
  top: "caffe.BN_595"
}
layer {
  name: "caffe.SpatialConvolution_597"
  type: "Convolution"
  bottom: "caffe.BN_595"
  top: "caffe.SpatialConvolution_597"
  convolution_param {
    num_output: 256
    bias_term: false
    pad_h: 0
    pad_w: 0
    kernel_h: 1
    kernel_w: 1
    stride_h: 1
    stride_w: 1
  }
}
layer {
  name: "caffe.BN_598"
  type: "BN"
  bottom: "caffe.SpatialConvolution_597"
  top: "caffe.BN_598"
  param {
    lr_mult: 1
    decay_mult: 0
  }
  param {
    lr_mult: 1
    decay_mult: 0
  }
  bn_param { frozen: true
    slope_filler {
      value: 1
    }
    bias_filler {
      value: 0
    }
  }
}
layer {
  name: "caffe.ReLU_599"
  type: "ReLU"
  bottom: "caffe.BN_598"
  top: "caffe.BN_598"
}
layer {
  name: "caffe.SpatialConvolution_600"
  type: "Convolution"
  bottom: "caffe.BN_598"
  top: "caffe.SpatialConvolution_600"
  convolution_param {
    num_output: 256
    bias_term: false
    pad_h: 1
    pad_w: 1
    kernel_h: 3
    kernel_w: 3
    stride_h: 1
    stride_w: 1
  }
}
layer {
  name: "caffe.BN_601"
  type: "BN"
  bottom: "caffe.SpatialConvolution_600"
  top: "caffe.BN_601"
  param {
    lr_mult: 1
    decay_mult: 0
  }
  param {
    lr_mult: 1
    decay_mult: 0
  }
  bn_param { frozen: true
    slope_filler {
      value: 1
    }
    bias_filler {
      value: 0
    }
  }
}
layer {
  name: "caffe.ReLU_602"
  type: "ReLU"
  bottom: "caffe.BN_601"
  top: "caffe.BN_601"
}
layer {
  name: "caffe.SpatialConvolution_603"
  type: "Convolution"
  bottom: "caffe.BN_601"
  top: "caffe.SpatialConvolution_603"
  convolution_param {
    num_output: 1024
    bias_term: false
    pad_h: 0
    pad_w: 0
    kernel_h: 1
    kernel_w: 1
    stride_h: 1
    stride_w: 1
  }
}
layer {
  name: "caffe.Eltwise_604"
  type: "Eltwise"
  bottom: "caffe.SpatialConvolution_603"
  bottom: "caffe.Eltwise_594"
  top: "caffe.Eltwise_604"
}
layer {
  name: "caffe.BN_605"
  type: "BN"
  bottom: "caffe.Eltwise_604"
  top: "caffe.BN_605"
  param {
    lr_mult: 1
    decay_mult: 0
  }
  param {
    lr_mult: 1
    decay_mult: 0
  }
  bn_param { frozen: true
    slope_filler {
      value: 1
    }
    bias_filler {
      value: 0
    }
  }
}
layer {
  name: "caffe.ReLU_606"
  type: "ReLU"
  bottom: "caffe.BN_605"
  top: "caffe.BN_605"
}
layer {
  name: "caffe.SpatialConvolution_607"
  type: "Convolution"
  bottom: "caffe.BN_605"
  top: "caffe.SpatialConvolution_607"
  convolution_param {
    num_output: 256
    bias_term: false
    pad_h: 0
    pad_w: 0
    kernel_h: 1
    kernel_w: 1
    stride_h: 1
    stride_w: 1
  }
}
layer {
  name: "caffe.BN_608"
  type: "BN"
  bottom: "caffe.SpatialConvolution_607"
  top: "caffe.BN_608"
  param {
    lr_mult: 1
    decay_mult: 0
  }
  param {
    lr_mult: 1
    decay_mult: 0
  }
  bn_param { frozen: true
    slope_filler {
      value: 1
    }
    bias_filler {
      value: 0
    }
  }
}
layer {
  name: "caffe.ReLU_609"
  type: "ReLU"
  bottom: "caffe.BN_608"
  top: "caffe.BN_608"
}
layer {
  name: "caffe.SpatialConvolution_610"
  type: "Convolution"
  bottom: "caffe.BN_608"
  top: "caffe.SpatialConvolution_610"
  convolution_param {
    num_output: 256
    bias_term: false
    pad_h: 1
    pad_w: 1
    kernel_h: 3
    kernel_w: 3
    stride_h: 1
    stride_w: 1
  }
}
layer {
  name: "caffe.BN_611"
  type: "BN"
  bottom: "caffe.SpatialConvolution_610"
  top: "caffe.BN_611"
  param {
    lr_mult: 1
    decay_mult: 0
  }
  param {
    lr_mult: 1
    decay_mult: 0
  }
  bn_param { frozen: true
    slope_filler {
      value: 1
    }
    bias_filler {
      value: 0
    }
  }
}
layer {
  name: "caffe.ReLU_612"
  type: "ReLU"
  bottom: "caffe.BN_611"
  top: "caffe.BN_611"
}
layer {
  name: "caffe.SpatialConvolution_613"
  type: "Convolution"
  bottom: "caffe.BN_611"
  top: "caffe.SpatialConvolution_613"
  convolution_param {
    num_output: 1024
    bias_term: false
    pad_h: 0
    pad_w: 0
    kernel_h: 1
    kernel_w: 1
    stride_h: 1
    stride_w: 1
  }
}
layer {
  name: "caffe.Eltwise_614"
  type: "Eltwise"
  bottom: "caffe.SpatialConvolution_613"
  bottom: "caffe.Eltwise_604"
  top: "caffe.Eltwise_614"
}
layer {
  name: "caffe.BN_615"
  type: "BN"
  bottom: "caffe.Eltwise_614"
  top: "caffe.BN_615"
  param {
    lr_mult: 1
    decay_mult: 0
  }
  param {
    lr_mult: 1
    decay_mult: 0
  }
  bn_param { frozen: true
    slope_filler {
      value: 1
    }
    bias_filler {
      value: 0
    }
  }
}
layer {
  name: "caffe.ReLU_616"
  type: "ReLU"
  bottom: "caffe.BN_615"
  top: "caffe.BN_615"
}
layer {
  name: "caffe.SpatialConvolution_617"
  type: "Convolution"
  bottom: "caffe.BN_615"
  top: "caffe.SpatialConvolution_617"
  convolution_param {
    num_output: 256
    bias_term: false
    pad_h: 0
    pad_w: 0
    kernel_h: 1
    kernel_w: 1
    stride_h: 1
    stride_w: 1
  }
}
layer {
  name: "caffe.BN_618"
  type: "BN"
  bottom: "caffe.SpatialConvolution_617"
  top: "caffe.BN_618"
  param {
    lr_mult: 1
    decay_mult: 0
  }
  param {
    lr_mult: 1
    decay_mult: 0
  }
  bn_param { frozen: true
    slope_filler {
      value: 1
    }
    bias_filler {
      value: 0
    }
  }
}
layer {
  name: "caffe.ReLU_619"
  type: "ReLU"
  bottom: "caffe.BN_618"
  top: "caffe.BN_618"
}
layer {
  name: "caffe.SpatialConvolution_620"
  type: "Convolution"
  bottom: "caffe.BN_618"
  top: "caffe.SpatialConvolution_620"
  convolution_param {
    num_output: 256
    bias_term: false
    pad_h: 1
    pad_w: 1
    kernel_h: 3
    kernel_w: 3
    stride_h: 1
    stride_w: 1
  }
}
layer {
  name: "caffe.BN_621"
  type: "BN"
  bottom: "caffe.SpatialConvolution_620"
  top: "caffe.BN_621"
  param {
    lr_mult: 1
    decay_mult: 0
  }
  param {
    lr_mult: 1
    decay_mult: 0
  }
  bn_param { frozen: true
    slope_filler {
      value: 1
    }
    bias_filler {
      value: 0
    }
  }
}
layer {
  name: "caffe.ReLU_622"
  type: "ReLU"
  bottom: "caffe.BN_621"
  top: "caffe.BN_621"
}
layer {
  name: "caffe.SpatialConvolution_623"
  type: "Convolution"
  bottom: "caffe.BN_621"
  top: "caffe.SpatialConvolution_623"
  convolution_param {
    num_output: 1024
    bias_term: false
    pad_h: 0
    pad_w: 0
    kernel_h: 1
    kernel_w: 1
    stride_h: 1
    stride_w: 1
  }
}
layer {
  name: "caffe.Eltwise_624"
  type: "Eltwise"
  bottom: "caffe.SpatialConvolution_623"
  bottom: "caffe.Eltwise_614"
  top: "caffe.Eltwise_624"
}
layer {
  name: "caffe.BN_625"
  type: "BN"
  bottom: "caffe.Eltwise_624"
  top: "caffe.BN_625"
  param {
    lr_mult: 1
    decay_mult: 0
  }
  param {
    lr_mult: 1
    decay_mult: 0
  }
  bn_param { frozen: true
    slope_filler {
      value: 1
    }
    bias_filler {
      value: 0
    }
  }
}
layer {
  name: "caffe.ReLU_626"
  type: "ReLU"
  bottom: "caffe.BN_625"
  top: "caffe.BN_625"
}
layer {
  name: "caffe.SpatialConvolution_627"
  type: "Convolution"
  bottom: "caffe.BN_625"
  top: "caffe.SpatialConvolution_627"
  convolution_param {
    num_output: 256
    bias_term: false
    pad_h: 0
    pad_w: 0
    kernel_h: 1
    kernel_w: 1
    stride_h: 1
    stride_w: 1
  }
}
layer {
  name: "caffe.BN_628"
  type: "BN"
  bottom: "caffe.SpatialConvolution_627"
  top: "caffe.BN_628"
  param {
    lr_mult: 1
    decay_mult: 0
  }
  param {
    lr_mult: 1
    decay_mult: 0
  }
  bn_param { frozen: true
    slope_filler {
      value: 1
    }
    bias_filler {
      value: 0
    }
  }
}
layer {
  name: "caffe.ReLU_629"
  type: "ReLU"
  bottom: "caffe.BN_628"
  top: "caffe.BN_628"
}
layer {
  name: "caffe.SpatialConvolution_630"
  type: "Convolution"
  bottom: "caffe.BN_628"
  top: "caffe.SpatialConvolution_630"
  convolution_param {
    num_output: 256
    bias_term: false
    pad_h: 1
    pad_w: 1
    kernel_h: 3
    kernel_w: 3
    stride_h: 1
    stride_w: 1
  }
}
layer {
  name: "caffe.BN_631"
  type: "BN"
  bottom: "caffe.SpatialConvolution_630"
  top: "caffe.BN_631"
  param {
    lr_mult: 1
    decay_mult: 0
  }
  param {
    lr_mult: 1
    decay_mult: 0
  }
  bn_param { frozen: true
    slope_filler {
      value: 1
    }
    bias_filler {
      value: 0
    }
  }
}
layer {
  name: "caffe.ReLU_632"
  type: "ReLU"
  bottom: "caffe.BN_631"
  top: "caffe.BN_631"
}
layer {
  name: "caffe.SpatialConvolution_633"
  type: "Convolution"
  bottom: "caffe.BN_631"
  top: "caffe.SpatialConvolution_633"
  convolution_param {
    num_output: 1024
    bias_term: false
    pad_h: 0
    pad_w: 0
    kernel_h: 1
    kernel_w: 1
    stride_h: 1
    stride_w: 1
  }
}
layer {
  name: "caffe.Eltwise_634"
  type: "Eltwise"
  bottom: "caffe.SpatialConvolution_633"
  bottom: "caffe.Eltwise_624"
  top: "caffe.Eltwise_634"
}
layer {
  name: "caffe.BN_635"
  type: "BN"
  bottom: "caffe.Eltwise_634"
  top: "caffe.BN_635"
  param {
    lr_mult: 1
    decay_mult: 0
  }
  param {
    lr_mult: 1
    decay_mult: 0
  }
  bn_param { frozen: true
    slope_filler {
      value: 1
    }
    bias_filler {
      value: 0
    }
  }
}
layer {
  name: "caffe.ReLU_636"
  type: "ReLU"
  bottom: "caffe.BN_635"
  top: "caffe.BN_635"
}
layer {
  name: "caffe.SpatialConvolution_637"
  type: "Convolution"
  bottom: "caffe.BN_635"
  top: "caffe.SpatialConvolution_637"
  convolution_param {
    num_output: 256
    bias_term: false
    pad_h: 0
    pad_w: 0
    kernel_h: 1
    kernel_w: 1
    stride_h: 1
    stride_w: 1
  }
}
layer {
  name: "caffe.BN_638"
  type: "BN"
  bottom: "caffe.SpatialConvolution_637"
  top: "caffe.BN_638"
  param {
    lr_mult: 1
    decay_mult: 0
  }
  param {
    lr_mult: 1
    decay_mult: 0
  }
  bn_param { frozen: true
    slope_filler {
      value: 1
    }
    bias_filler {
      value: 0
    }
  }
}
layer {
  name: "caffe.ReLU_639"
  type: "ReLU"
  bottom: "caffe.BN_638"
  top: "caffe.BN_638"
}
layer {
  name: "caffe.SpatialConvolution_640"
  type: "Convolution"
  bottom: "caffe.BN_638"
  top: "caffe.SpatialConvolution_640"
  convolution_param {
    num_output: 256
    bias_term: false
    pad_h: 1
    pad_w: 1
    kernel_h: 3
    kernel_w: 3
    stride_h: 1
    stride_w: 1
  }
}
layer {
  name: "caffe.BN_641"
  type: "BN"
  bottom: "caffe.SpatialConvolution_640"
  top: "caffe.BN_641"
  param {
    lr_mult: 1
    decay_mult: 0
  }
  param {
    lr_mult: 1
    decay_mult: 0
  }
  bn_param { frozen: true
    slope_filler {
      value: 1
    }
    bias_filler {
      value: 0
    }
  }
}
layer {
  name: "caffe.ReLU_642"
  type: "ReLU"
  bottom: "caffe.BN_641"
  top: "caffe.BN_641"
}
layer {
  name: "caffe.SpatialConvolution_643"
  type: "Convolution"
  bottom: "caffe.BN_641"
  top: "caffe.SpatialConvolution_643"
  convolution_param {
    num_output: 1024
    bias_term: false
    pad_h: 0
    pad_w: 0
    kernel_h: 1
    kernel_w: 1
    stride_h: 1
    stride_w: 1
  }
}
layer {
  name: "caffe.Eltwise_644"
  type: "Eltwise"
  bottom: "caffe.SpatialConvolution_643"
  bottom: "caffe.Eltwise_634"
  top: "caffe.Eltwise_644"
}
layer {
  name: "caffe.BN_645"
  type: "BN"
  bottom: "caffe.Eltwise_644"
  top: "caffe.BN_645"
  param {
    lr_mult: 1
    decay_mult: 0
  }
  param {
    lr_mult: 1
    decay_mult: 0
  }
  bn_param { frozen: true
    slope_filler {
      value: 1
    }
    bias_filler {
      value: 0
    }
  }
}
layer {
  name: "caffe.ReLU_646"
  type: "ReLU"
  bottom: "caffe.BN_645"
  top: "caffe.BN_645"
}
layer {
  name: "caffe.SpatialConvolution_647"
  type: "Convolution"
  bottom: "caffe.BN_645"
  top: "caffe.SpatialConvolution_647"
  convolution_param {
    num_output: 256
    bias_term: false
    pad_h: 0
    pad_w: 0
    kernel_h: 1
    kernel_w: 1
    stride_h: 1
    stride_w: 1
  }
}
layer {
  name: "caffe.BN_648"
  type: "BN"
  bottom: "caffe.SpatialConvolution_647"
  top: "caffe.BN_648"
  param {
    lr_mult: 1
    decay_mult: 0
  }
  param {
    lr_mult: 1
    decay_mult: 0
  }
  bn_param { frozen: true
    slope_filler {
      value: 1
    }
    bias_filler {
      value: 0
    }
  }
}
layer {
  name: "caffe.ReLU_649"
  type: "ReLU"
  bottom: "caffe.BN_648"
  top: "caffe.BN_648"
}
layer {
  name: "caffe.SpatialConvolution_650"
  type: "Convolution"
  bottom: "caffe.BN_648"
  top: "caffe.SpatialConvolution_650"
  convolution_param {
    num_output: 256
    bias_term: false
    pad_h: 1
    pad_w: 1
    kernel_h: 3
    kernel_w: 3
    stride_h: 1
    stride_w: 1
  }
}
layer {
  name: "caffe.BN_651"
  type: "BN"
  bottom: "caffe.SpatialConvolution_650"
  top: "caffe.BN_651"
  param {
    lr_mult: 1
    decay_mult: 0
  }
  param {
    lr_mult: 1
    decay_mult: 0
  }
  bn_param { frozen: true
    slope_filler {
      value: 1
    }
    bias_filler {
      value: 0
    }
  }
}
layer {
  name: "caffe.ReLU_652"
  type: "ReLU"
  bottom: "caffe.BN_651"
  top: "caffe.BN_651"
}
layer {
  name: "caffe.SpatialConvolution_653"
  type: "Convolution"
  bottom: "caffe.BN_651"
  top: "caffe.SpatialConvolution_653"
  convolution_param {
    num_output: 1024
    bias_term: false
    pad_h: 0
    pad_w: 0
    kernel_h: 1
    kernel_w: 1
    stride_h: 1
    stride_w: 1
  }
}
layer {
  name: "caffe.Eltwise_654"
  type: "Eltwise"
  bottom: "caffe.SpatialConvolution_653"
  bottom: "caffe.Eltwise_644"
  top: "caffe.Eltwise_654"
}
layer {
  name: "caffe.BN_655"
  type: "BN"
  bottom: "caffe.Eltwise_654"
  top: "caffe.BN_655"
  param {
    lr_mult: 1
    decay_mult: 0
  }
  param {
    lr_mult: 1
    decay_mult: 0
  }
  bn_param { frozen: true
    slope_filler {
      value: 1
    }
    bias_filler {
      value: 0
    }
  }
}
layer {
  name: "caffe.ReLU_656"
  type: "ReLU"
  bottom: "caffe.BN_655"
  top: "caffe.BN_655"
}
layer {
  name: "caffe.SpatialConvolution_657"
  type: "Convolution"
  bottom: "caffe.BN_655"
  top: "caffe.SpatialConvolution_657"
  convolution_param {
    num_output: 256
    bias_term: false
    pad_h: 0
    pad_w: 0
    kernel_h: 1
    kernel_w: 1
    stride_h: 1
    stride_w: 1
  }
}
layer {
  name: "caffe.BN_658"
  type: "BN"
  bottom: "caffe.SpatialConvolution_657"
  top: "caffe.BN_658"
  param {
    lr_mult: 1
    decay_mult: 0
  }
  param {
    lr_mult: 1
    decay_mult: 0
  }
  bn_param { frozen: true
    slope_filler {
      value: 1
    }
    bias_filler {
      value: 0
    }
  }
}
layer {
  name: "caffe.ReLU_659"
  type: "ReLU"
  bottom: "caffe.BN_658"
  top: "caffe.BN_658"
}
layer {
  name: "caffe.SpatialConvolution_660"
  type: "Convolution"
  bottom: "caffe.BN_658"
  top: "caffe.SpatialConvolution_660"
  convolution_param {
    num_output: 256
    bias_term: false
    pad_h: 1
    pad_w: 1
    kernel_h: 3
    kernel_w: 3
    stride_h: 1
    stride_w: 1
  }
}
layer {
  name: "caffe.BN_661"
  type: "BN"
  bottom: "caffe.SpatialConvolution_660"
  top: "caffe.BN_661"
  param {
    lr_mult: 1
    decay_mult: 0
  }
  param {
    lr_mult: 1
    decay_mult: 0
  }
  bn_param { frozen: true
    slope_filler {
      value: 1
    }
    bias_filler {
      value: 0
    }
  }
}
layer {
  name: "caffe.ReLU_662"
  type: "ReLU"
  bottom: "caffe.BN_661"
  top: "caffe.BN_661"
}
layer {
  name: "caffe.SpatialConvolution_663"
  type: "Convolution"
  bottom: "caffe.BN_661"
  top: "caffe.SpatialConvolution_663"
  convolution_param {
    num_output: 1024
    bias_term: false
    pad_h: 0
    pad_w: 0
    kernel_h: 1
    kernel_w: 1
    stride_h: 1
    stride_w: 1
  }
}
layer {
  name: "caffe.Eltwise_664"
  type: "Eltwise"
  bottom: "caffe.SpatialConvolution_663"
  bottom: "caffe.Eltwise_654"
  top: "caffe.Eltwise_664"
}
layer {
  name: "caffe.BN_665"
  type: "BN"
  bottom: "caffe.Eltwise_664"
  top: "caffe.BN_665"
  param {
    lr_mult: 1
    decay_mult: 0
  }
  param {
    lr_mult: 1
    decay_mult: 0
  }
  bn_param { frozen: true
    slope_filler {
      value: 1
    }
    bias_filler {
      value: 0
    }
  }
}
layer {
  name: "caffe.ReLU_666"
  type: "ReLU"
  bottom: "caffe.BN_665"
  top: "caffe.BN_665"
}
layer {
  name: "caffe.SpatialConvolution_667"
  type: "Convolution"
  bottom: "caffe.BN_665"
  top: "caffe.SpatialConvolution_667"
  convolution_param {
…
  name: "caffe.SpatialConvolution_747"
  type: "Convolution"
  bottom: "caffe.BN_745"
  top: "caffe.SpatialConvolution_747"
  convolution_param {
    num_output: 256
    bias_term: false
    pad_h: 0
    pad_w: 0
    kernel_h: 1
    kernel_w: 1
    stride_h: 1
    stride_w: 1
  }
}
layer {
  name: "caffe.BN_748"
  type: "BN"
  bottom: "caffe.SpatialConvolution_747"
  top: "caffe.BN_748"
  param {
    lr_mult: 1
    decay_mult: 0
  }
  param {
    lr_mult: 1
    decay_mult: 0
  }
  bn_param { frozen: true
    slope_filler {
      value: 1
    }
    bias_filler {
      value: 0
    }
  }
}
layer {
  name: "caffe.ReLU_749"
  type: "ReLU"
  bottom: "caffe.BN_748"
  top: "caffe.BN_748"
}
layer {
  name: "caffe.SpatialConvolution_750"
  type: "Convolution"
  bottom: "caffe.BN_748"
  top: "caffe.SpatialConvolution_750"
  convolution_param {
    num_output: 256
    bias_term: false
    pad_h: 1
    pad_w: 1
    kernel_h: 3
    kernel_w: 3
    stride_h: 1
    stride_w: 1
  }
}
layer {
  name: "caffe.BN_751"
  type: "BN"
  bottom: "caffe.SpatialConvolution_750"
  top: "caffe.BN_751"
  param {
    lr_mult: 1
    decay_mult: 0
  }
  param {
    lr_mult: 1
    decay_mult: 0
  }
  bn_param { frozen: true
    slope_filler {
      value: 1
    }
    bias_filler {
      value: 0
    }
  }
}
layer {
  name: "caffe.ReLU_752"
  type: "ReLU"
  bottom: "caffe.BN_751"
  top: "caffe.BN_751"
}
layer {
  name: "caffe.SpatialConvolution_753"
  type: "Convolution"
  bottom: "caffe.BN_751"
  top: "caffe.SpatialConvolution_753"
  convolution_param {
    num_output: 1024
    bias_term: false
    pad_h: 0
    pad_w: 0
    kernel_h: 1
    kernel_w: 1
    stride_h: 1
    stride_w: 1
  }
}
layer {
  name: "caffe.Eltwise_754"
  type: "Eltwise"
  bottom: "caffe.SpatialConvolution_753"
  bottom: "caffe.Eltwise_744"
  top: "caffe.Eltwise_754"
}
layer {
  name: "caffe.BN_755"
  type: "BN"
  bottom: "caffe.Eltwise_754"
  top: "caffe.BN_755"
  param {
    lr_mult: 1
    decay_mult: 0
  }
  param {
    lr_mult: 1
    decay_mult: 0
  }
  bn_param { frozen: true
    slope_filler {
      value: 1
    }
    bias_filler {
      value: 0
    }
  }
}
layer {
  name: "caffe.ReLU_756"
  type: "ReLU"
  bottom: "caffe.BN_755"
  top: "caffe.BN_755"
}
layer {
  name: "caffe.SpatialConvolution_757"
  type: "Convolution"
  bottom: "caffe.BN_755"
  top: "caffe.SpatialConvolution_757"
  convolution_param {
    num_output: 256
    bias_term: false
    pad_h: 0
    pad_w: 0
    kernel_h: 1
    kernel_w: 1
    stride_h: 1
    stride_w: 1
  }
}
layer {
  name: "caffe.BN_758"
  type: "BN"
  bottom: "caffe.SpatialConvolution_757"
  top: "caffe.BN_758"
  param {
    lr_mult: 1
    decay_mult: 0
  }
  param {
    lr_mult: 1
    decay_mult: 0
  }
  bn_param { frozen: true
    slope_filler {
      value: 1
    }
    bias_filler {
      value: 0
    }
  }
}
layer {
  name: "caffe.ReLU_759"
  type: "ReLU"
  bottom: "caffe.BN_758"
  top: "caffe.BN_758"
}
layer {
  name: "caffe.SpatialConvolution_760"
  type: "Convolution"
  bottom: "caffe.BN_758"
  top: "caffe.SpatialConvolution_760"
  convolution_param {
    num_output: 256
    bias_term: false
    pad_h: 1
    pad_w: 1
    kernel_h: 3
    kernel_w: 3
    stride_h: 1
    stride_w: 1
  }
}
layer {
  name: "caffe.BN_761"
  type: "BN"
  bottom: "caffe.SpatialConvolution_760"
  top: "caffe.BN_761"
  param {
    lr_mult: 1
    decay_mult: 0
  }
  param {
    lr_mult: 1
    decay_mult: 0
  }
  bn_param { frozen: true
    slope_filler {
      value: 1
    }
    bias_filler {
      value: 0
    }
  }
}
layer {
  name: "caffe.ReLU_762"
  type: "ReLU"
  bottom: "caffe.BN_761"
  top: "caffe.BN_761"
}
layer {
  name: "caffe.SpatialConvolution_763"
  type: "Convolution"
  bottom: "caffe.BN_761"
  top: "caffe.SpatialConvolution_763"
  convolution_param {
    num_output: 1024
    bias_term: false
    pad_h: 0
    pad_w: 0
    kernel_h: 1
    kernel_w: 1
    stride_h: 1
    stride_w: 1
  }
}
layer {
  name: "caffe.Eltwise_764"
  type: "Eltwise"
  bottom: "caffe.SpatialConvolution_763"
  bottom: "caffe.Eltwise_754"
  top: "caffe.Eltwise_764"
}
layer {
  name: "caffe.BN_765"
  type: "BN"
  bottom: "caffe.Eltwise_764"
  top: "caffe.BN_765"
  param {
    lr_mult: 1
    decay_mult: 0
  }
  param {
    lr_mult: 1
    decay_mult: 0
  }
  bn_param { frozen: true
    slope_filler {
      value: 1
    }
    bias_filler {
      value: 0
    }
  }
}
layer {
  name: "caffe.ReLU_766"
  type: "ReLU"
  bottom: "caffe.BN_765"
  top: "caffe.BN_765"
}
layer {
  name: "caffe.SpatialConvolution_767"
  type: "Convolution"
  bottom: "caffe.BN_765"
  top: "caffe.SpatialConvolution_767"
  convolution_param {
    num_output: 256
    bias_term: false
    pad_h: 0
    pad_w: 0
    kernel_h: 1
    kernel_w: 1
    stride_h: 1
    stride_w: 1
  }
}
layer {
  name: "caffe.BN_768"
  type: "BN"
  bottom: "caffe.SpatialConvolution_767"
  top: "caffe.BN_768"
  param {
    lr_mult: 1
    decay_mult: 0
  }
  param {
    lr_mult: 1
    decay_mult: 0
  }
  bn_param { frozen: true
    slope_filler {
      value: 1
    }
    bias_filler {
      value: 0
    }
  }
}
layer {
  name: "caffe.ReLU_769"
  type: "ReLU"
  bottom: "caffe.BN_768"
  top: "caffe.BN_768"
}
layer {
  name: "caffe.SpatialConvolution_770"
  type: "Convolution"
  bottom: "caffe.BN_768"
  top: "caffe.SpatialConvolution_770"
  convolution_param {
    num_output: 256
    bias_term: false
    pad_h: 1
    pad_w: 1
    kernel_h: 3
    kernel_w: 3
    stride_h: 1
    stride_w: 1
  }
}
layer {
  name: "caffe.BN_771"
  type: "BN"
  bottom: "caffe.SpatialConvolution_770"
  top: "caffe.BN_771"
  param {
    lr_mult: 1
    decay_mult: 0
  }
  param {
    lr_mult: 1
    decay_mult: 0
  }
  bn_param { frozen: true
    slope_filler {
      value: 1
    }
    bias_filler {
      value: 0
    }
  }
}
layer {
  name: "caffe.ReLU_772"
  type: "ReLU"
  bottom: "caffe.BN_771"
  top: "caffe.BN_771"
}
layer {
  name: "caffe.SpatialConvolution_773"
  type: "Convolution"
  bottom: "caffe.BN_771"
  top: "caffe.SpatialConvolution_773"
  convolution_param {
    num_output: 1024
    bias_term: false
    pad_h: 0
    pad_w: 0
    kernel_h: 1
    kernel_w: 1
    stride_h: 1
    stride_w: 1
  }
}
layer {
  name: "caffe.Eltwise_774"
  type: "Eltwise"
  bottom: "caffe.SpatialConvolution_773"
  bottom: "caffe.Eltwise_764"
  top: "caffe.Eltwise_774"
}
layer {
  name: "caffe.BN_775"
  type: "BN"
  bottom: "caffe.Eltwise_774"
  top: "caffe.BN_775"
  param {
    lr_mult: 1
    decay_mult: 0
  }
  param {
    lr_mult: 1
    decay_mult: 0
  }
  bn_param { frozen: true
    slope_filler {
      value: 1
    }
    bias_filler {
      value: 0
    }
  }
}
layer {
  name: "caffe.ReLU_776"
  type: "ReLU"
  bottom: "caffe.BN_775"
  top: "caffe.BN_775"
}
layer {
  name: "caffe.SpatialConvolution_777"
  type: "Convolution"
  bottom: "caffe.BN_775"
  top: "caffe.SpatialConvolution_777"
  convolution_param {
    num_output: 256
    bias_term: false
    pad_h: 0
    pad_w: 0
    kernel_h: 1
    kernel_w: 1
    stride_h: 1
    stride_w: 1
  }
}
layer {
  name: "caffe.BN_778"
  type: "BN"
  bottom: "caffe.SpatialConvolution_777"
  top: "caffe.BN_778"
  param {
    lr_mult: 1
    decay_mult: 0
  }
  param {
    lr_mult: 1
    decay_mult: 0
  }
  bn_param { frozen: true
    slope_filler {
      value: 1
    }
    bias_filler {
      value: 0
    }
  }
}
layer {
  name: "caffe.ReLU_779"
  type: "ReLU"
  bottom: "caffe.BN_778"
  top: "caffe.BN_778"
}
layer {
  name: "caffe.SpatialConvolution_780"
  type: "Convolution"
  bottom: "caffe.BN_778"
  top: "caffe.SpatialConvolution_780"
  convolution_param {
    num_output: 256
    bias_term: false
    pad_h: 1
    pad_w: 1
    kernel_h: 3
    kernel_w: 3
    stride_h: 1
    stride_w: 1
  }
}
layer {
  name: "caffe.BN_781"
  type: "BN"
  bottom: "caffe.SpatialConvolution_780"
  top: "caffe.BN_781"
  param {
    lr_mult: 1
    decay_mult: 0
  }
  param {
    lr_mult: 1
    decay_mult: 0
  }
  bn_param { frozen: true
    slope_filler {
      value: 1
    }
    bias_filler {
      value: 0
    }
  }
}
layer {
  name: "caffe.ReLU_782"
  type: "ReLU"
  bottom: "caffe.BN_781"
  top: "caffe.BN_781"
}
layer {
  name: "caffe.SpatialConvolution_783"
  type: "Convolution"
  bottom: "caffe.BN_781"
  top: "caffe.SpatialConvolution_783"
  convolution_param {
    num_output: 1024
    bias_term: false
    pad_h: 0
    pad_w: 0
    kernel_h: 1
    kernel_w: 1
    stride_h: 1
    stride_w: 1
  }
}
layer {
  name: "caffe.Eltwise_784"
  type: "Eltwise"
  bottom: "caffe.SpatialConvolution_783"
  bottom: "caffe.Eltwise_774"
  top: "caffe.Eltwise_784"
}
layer {
  name: "caffe.BN_785"
  type: "BN"
  bottom: "caffe.Eltwise_784"
  top: "caffe.BN_785"
  param {
    lr_mult: 1
    decay_mult: 0
  }
  param {
    lr_mult: 1
    decay_mult: 0
  }
  bn_param { frozen: true
    slope_filler {
      value: 1
    }
    bias_filler {
      value: 0
    }
  }
}
layer {
  name: "caffe.ReLU_786"
  type: "ReLU"
  bottom: "caffe.BN_785"
  top: "caffe.BN_785"
}
layer {
  name: "caffe.SpatialConvolution_787"
  type: "Convolution"
  bottom: "caffe.BN_785"
  top: "caffe.SpatialConvolution_787"
  convolution_param {
    num_output: 256
    bias_term: false
    pad_h: 0
    pad_w: 0
    kernel_h: 1
    kernel_w: 1
    stride_h: 1
    stride_w: 1
  }
}
layer {
  name: "caffe.BN_788"
  type: "BN"
  bottom: "caffe.SpatialConvolution_787"
  top: "caffe.BN_788"
  param {
    lr_mult: 1
    decay_mult: 0
  }
  param {
    lr_mult: 1
    decay_mult: 0
  }
  bn_param { frozen: true
    slope_filler {
      value: 1
    }
    bias_filler {
      value: 0
    }
  }
}
layer {
  name: "caffe.ReLU_789"
  type: "ReLU"
  bottom: "caffe.BN_788"
  top: "caffe.BN_788"
}
layer {
  name: "caffe.SpatialConvolution_790"
  type: "Convolution"
  bottom: "caffe.BN_788"
  top: "caffe.SpatialConvolution_790"
  convolution_param {
    num_output: 256
    bias_term: false
    pad_h: 1
    pad_w: 1
    kernel_h: 3
    kernel_w: 3
    stride_h: 1
    stride_w: 1
  }
}
layer {
  name: "caffe.BN_791"
  type: "BN"
  bottom: "caffe.SpatialConvolution_790"
  top: "caffe.BN_791"
  param {
    lr_mult: 1
    decay_mult: 0
  }
  param {
    lr_mult: 1
    decay_mult: 0
  }
  bn_param { frozen: true
    slope_filler {
      value: 1
    }
    bias_filler {
      value: 0
    }
  }
}
layer {
  name: "caffe.ReLU_792"
  type: "ReLU"
  bottom: "caffe.BN_791"
  top: "caffe.BN_791"
}
layer {
  name: "caffe.SpatialConvolution_793"
  type: "Convolution"
  bottom: "caffe.BN_791"
  top: "caffe.SpatialConvolution_793"
  convolution_param {
    num_output: 1024
    bias_term: false
    pad_h: 0
    pad_w: 0
    kernel_h: 1
    kernel_w: 1
    stride_h: 1
    stride_w: 1
  }
}
layer {
  name: "caffe.Eltwise_794"
  type: "Eltwise"
  bottom: "caffe.SpatialConvolution_793"
  bottom: "caffe.Eltwise_784"
  top: "caffe.Eltwise_794"
}

####################################### roi_pooling #######################################
layer {
  name: "caffe.Eltwise_794_roi_pool_pad16"
  type: "ROIPooling"
  bottom: "caffe.Eltwise_794"
  bottom: "rois"
  top: "caffe.Eltwise_794_roi_pool_pad16"
  roi_pooling_param {
    pooled_w: 14
    pooled_h: 14
    spatial_scale: 0.0625 # 1/16
  }
}

layer {
  name: "caffe.Eltwise_794_roi_pool_padn28"
  type: "ROIMaskPooling"
  bottom: "caffe.Eltwise_794"
  bottom: "rois"
  top: "caffe.Eltwise_794_roi_pool_padn28"
  roi_mask_pooling_param {
    pooled_w: 14
    pooled_h: 14
    spatial_scale: 0.0625 # 1/16
    roi_scale: 0.8
  }
}


layer {
  name: "caffe.Eltwise_794_roi_pool_pad50"
  type: "ROIMaskPooling"
  bottom: "caffe.Eltwise_794"
  bottom: "rois"
  top: "caffe.Eltwise_794_roi_pool_pad50"
  roi_mask_pooling_param {
    pooled_w: 14
    pooled_h: 14
    spatial_scale: 0.0625 # 1/16
    roi_scale: 1.806
  }
}

layer {
  name: "caffe.Eltwise_794_roi_pool_pad70"
  type: "ROIMaskPooling"
  bottom: "caffe.Eltwise_794"
  bottom: "rois"
  top: "caffe.Eltwise_794_roi_pool_pad70"
  roi_mask_pooling_param {
    pooled_w: 14
    pooled_h: 14
    spatial_scale: 0.0625 # 1/16
    roi_scale: 2.667
  }
}

layer {
  name: "icaffe.Eltwise_794_roi_pool_context"
  type: "Concat"
  bottom: "caffe.Eltwise_794_roi_pool_pad16"
  bottom: "caffe.Eltwise_794_roi_pool_padn28"
  bottom: "caffe.Eltwise_794_roi_pool_pad50"
  bottom: "caffe.Eltwise_794_roi_pool_pad70"
  top: "caffe.Eltwise_794_roi_pool1"
  concat_param{
    axis: 0
  }
}

#########################GBD-NET#####################################

### conv S--> B
layer {
  name: "caffe.Eltwise_794_roi_pool_padn28_S"
  type: "Convolution"
  bottom: "caffe.Eltwise_794_roi_pool_padn28"
  top: "caffe.Eltwise_794_roi_pool_padn28_S"
  param {
    lr_mult: 1
    decay_mult: 0
  }
  param {
    lr_mult: 1
    decay_mult: 0
  }
  convolution_param {
    num_output: 1024
    kernel_size: 3
    pad: 1
    weight_filler {
      type: "xavier"
      std: 0.001
    }
    bias_filler {
      type: "constant"
      value: 0
    }
  }
}
layer {
  name: "caffe.Eltwise_794_roi_pool_padn28_S_relu"
  type: "ReLU"
  bottom: "caffe.Eltwise_794_roi_pool_padn28_S"
  top: "caffe.Eltwise_794_roi_pool_padn28_S"
}


layer {
  name: "caffe.Eltwise_794_roi_pool_padn28_16_S"
  type: "Convolution"
  bottom: "caffe.Eltwise_794_roi_pool_padn28_S"
  top: "caffe.Eltwise_794_roi_pool_padn28_16_S"
  param {
    lr_mult: 1
    decay_mult: 0
  }
  param {
    lr_mult: 1
    decay_mult: 0
  }
  convolution_param {
    num_output: 1024
    kernel_size: 3
    pad: 1
    weight_filler {
      type: "xavier"
      std: 0.001
    }
    bias_filler {
      type: "constant"
      value: 0
    }
  }
}
layer {
  name: "caffe.Eltwise_794_roi_pool_padn28_16_S_relu"
  type: "ReLU"
  bottom: "caffe.Eltwise_794_roi_pool_padn28_16_S"
  top: "caffe.Eltwise_794_roi_pool_padn28_16_S_gate_output"
}

layer {
  name: "caffe.Eltwise_794_roi_pool_pad16_S"
  type: "Convolution"
  bottom: "caffe.Eltwise_794_roi_pool_pad16"
  top: "caffe.Eltwise_794_roi_pool_pad16_S"
  param {
    lr_mult: 1
    decay_mult: 0
  }
  param {
    lr_mult: 1
    decay_mult: 0
  }
  convolution_param {
    num_output: 1024
    kernel_size: 3
    pad: 1
    weight_filler {
      type: "xavier"
      std: 0.001
    }
    bias_filler {
      type: "constant"
      value: 0
    }
  }
}
layer {
  name: "caffe.Eltwise_794_roi_pool_pad16_S_relu"
  type: "ReLU"
  bottom: "caffe.Eltwise_794_roi_pool_pad16_S"
  top: "caffe.Eltwise_794_roi_pool_pad16_S"
}
layer {
  name: "caffe.Eltwise_794_roi_pool_padn28_16_S_SUM"
  type: "Eltwise"
  bottom: "caffe.Eltwise_794_roi_pool_padn28_16_S_gate_output"
  bottom: "caffe.Eltwise_794_roi_pool_pad16_S"
  top: "caffe.Eltwise_794_roi_pool_pad16_S_SUM"
  eltwise_param {
    operation: SUM
    coeff: 1
    coeff: 1
  }
}
layer {
  name: "caffe.Eltwise_794_roi_pool_pad16_50_S"
  type: "Convolution"
  bottom: "caffe.Eltwise_794_roi_pool_pad16_S_SUM"
  top: "caffe.Eltwise_794_roi_pool_pad16_50_S"
  param {
    lr_mult: 1
    decay_mult: 0
  }
  param {
    lr_mult: 1
    decay_mult: 0
  }
  convolution_param {
    num_output: 1024
    kernel_size: 3
    pad: 1
    weight_filler {
      type: "xavier"
      std: 0.001
    }
    bias_filler {
      type: "constant"
      value: 0
    }
  }
}
layer {
  name: "caffe.Eltwise_794_roi_pool_pad16_50_S_relu"
  type: "ReLU"
  bottom: "caffe.Eltwise_794_roi_pool_pad16_50_S"
  top: "caffe.Eltwise_794_roi_pool_pad16_50_S_gate_output"
}


layer {
  name: "caffe.Eltwise_794_roi_pool_pad50_S"
  type: "Convolution"
  bottom: "caffe.Eltwise_794_roi_pool_pad50"
  top: "caffe.Eltwise_794_roi_pool_pad50_S"
  param {
    lr_mult: 1
    decay_mult: 0
  }
  param {
    lr_mult: 1
    decay_mult: 0
  }
  convolution_param {
    num_output: 1024
    kernel_size: 3
    pad: 1
    weight_filler {
      type: "xavier"
      std: 0.001
    }
    bias_filler {
      type: "constant"
      value: 0
    }
  }
}
layer {
  name: "caffe.Eltwise_794_roi_pool_pad50_S_relu"
  type: "ReLU"
  bottom: "caffe.Eltwise_794_roi_pool_pad50_S"
  top: "caffe.Eltwise_794_roi_pool_pad50_S"
}
layer {
  name: "caffe.Eltwise_794_roi_pool_pad16_50_S_SUM"
  type: "Eltwise"
  bottom: "caffe.Eltwise_794_roi_pool_pad16_50_S_gate_output"
  bottom: "caffe.Eltwise_794_roi_pool_pad50_S"
  top: "caffe.Eltwise_794_roi_pool_pad50_S_SUM"
  eltwise_param {
    operation: SUM
    coeff: 1
    coeff: 1
  }
}
layer {
  name: "caffe.Eltwise_794_roi_pool_pad50_70_S"
  type: "Convolution"
  bottom: "caffe.Eltwise_794_roi_pool_pad50_S_SUM"
  top: "caffe.Eltwise_794_roi_pool_pad50_70_S"
  param {
    lr_mult: 1
    decay_mult: 0
  }
  param {
    lr_mult: 1
    decay_mult: 0
  }
  convolution_param {
    num_output: 1024
    kernel_size: 3
    pad: 1
    weight_filler {
      type: "xavier"
      std: 0.001
    }
    bias_filler {
      type: "constant"
      value: 0
    }
  }
}
layer {
  name: "caffe.Eltwise_794_roi_pool_pad50_70_S_relu"
  type: "ReLU"
  bottom: "caffe.Eltwise_794_roi_pool_pad50_70_S"
  top: "caffe.Eltwise_794_roi_pool_pad50_70_S_gate_output"
}

layer {
  name: "caffe.Eltwise_794_roi_pool_pad70_S"
  type: "Convolution"
  bottom: "caffe.Eltwise_794_roi_pool_pad70"
  top: "caffe.Eltwise_794_roi_pool_pad70_S"
  param {
    lr_mult: 1
    decay_mult: 0
  }
  param {
    lr_mult: 1
    decay_mult: 0
  }
  convolution_param {
    num_output: 1024
    kernel_size: 3
    pad: 1
    weight_filler {
      type: "xavier"
      std: 0.001
    }
    bias_filler {
      type: "constant"
      value: 0
    }
  }
}
layer {
  name: "caffe.Eltwise_794_roi_pool_pad70_S_relu"
  type: "ReLU"
  bottom: "caffe.Eltwise_794_roi_pool_pad70_S"
  top: "caffe.Eltwise_794_roi_pool_pad70_S"
}
layer {
  name: "caffe.Eltwise_794_roi_pool_pad50_70_S_SUM"
  type: "Eltwise"
  bottom: "caffe.Eltwise_794_roi_pool_pad50_70_S_gate_output"
  bottom: "caffe.Eltwise_794_roi_pool_pad70_S"
  top: "caffe.Eltwise_794_roi_pool_pad70_S_SUM"
  eltwise_param {
    operation: SUM
    coeff: 1
    coeff: 1
  }
}
######## B --> S
layer {
  name: "caffe.Eltwise_794_roi_pool_pad70_B"
  type: "Convolution"
  bottom: "caffe.Eltwise_794_roi_pool_pad70"
  top: "caffe.Eltwise_794_roi_pool_pad70_B"
  param {
    lr_mult: 1
    decay_mult: 0
  }
  param {
    lr_mult: 1
    decay_mult: 0
  }
  convolution_param {
    num_output: 1024
    kernel_size: 3
    pad: 1
    weight_filler {
      type: "xavier"
      std: 0.001
    }
    bias_filler {
      type: "constant"
      value: 0
    }
  }
}
layer {
  name: "caffe.Eltwise_794_roi_pool_pad70_B_relu"
  type: "ReLU"
  bottom: "caffe.Eltwise_794_roi_pool_pad70_B"
  top: "caffe.Eltwise_794_roi_pool_pad70_B"
}
layer {
  name: "caffe.Eltwise_794_roi_pool_pad70_50_B"
  type: "Convolution"
  bottom: "caffe.Eltwise_794_roi_pool_pad70_B"
  top: "caffe.Eltwise_794_roi_pool_pad70_50_B"
  param {
    lr_mult: 1
    decay_mult: 0
  }
  param {
    lr_mult: 1
    decay_mult: 0
  }
  convolution_param {
    num_output: 1024
    kernel_size: 3
    pad: 1
    weight_filler {
      type: "xavier"
      std: 0.001
    }
    bias_filler {
      type: "constant"
      value: 0
    }
  }
}
layer {
  name: "caffe.Eltwise_794_roi_pool_pad70_50_B_relu"
  type: "ReLU"
  bottom: "caffe.Eltwise_794_roi_pool_pad70_50_B"
  top: "caffe.Eltwise_794_roi_pool_pad70_50_B_gate_output"
}

layer {
  name: "caffe.Eltwise_794_roi_pool_pad50_B"
  type: "Convolution"
  bottom: "caffe.Eltwise_794_roi_pool_pad50"
  top: "caffe.Eltwise_794_roi_pool_pad50_B"
  param {
    lr_mult: 1
    decay_mult: 0
  }
  param {
    lr_mult: 1
    decay_mult: 0
  }
  convolution_param {
    num_output: 1024
    kernel_size: 3
    pad: 1
    weight_filler {
      type: "xavier"
      std: 0.001
    }
    bias_filler {
      type: "constant"
      value: 0
    }
  }
}
layer {
  name: "caffe.Eltwise_794_roi_pool_pad50_B_relu"
  type: "ReLU"
  bottom: "caffe.Eltwise_794_roi_pool_pad50_B"
  top: "caffe.Eltwise_794_roi_pool_pad50_B"
}
layer {
  name: "caffe.Eltwise_794_roi_pool_pad70_50_B_SUM"
  type: "Eltwise"
  bottom: "caffe.Eltwise_794_roi_pool_pad70_50_B_gate_output"
  bottom: "caffe.Eltwise_794_roi_pool_pad50_B"
  top: "caffe.Eltwise_794_roi_pool_pad50_B_SUM"
  eltwise_param {
    operation: SUM
    coeff: 1
    coeff: 1
  }
}
layer {
  name: "caffe.Eltwise_794_roi_pool_pad50_16_B"
  type: "Convolution"
  bottom: "caffe.Eltwise_794_roi_pool_pad50_B_SUM"
  top: "caffe.Eltwise_794_roi_pool_pad50_16_B"
  param {
    lr_mult: 1
    decay_mult: 0
  }
  param {
    lr_mult: 1
    decay_mult: 0
  }
  convolution_param {
    num_output: 1024
    kernel_size: 3
    pad: 1
    weight_filler {
      type: "xavier"
      std: 0.001
    }
    bias_filler {
      type: "constant"
      value: 0
    }
  }
}
layer {
  name: "caffe.Eltwise_794_roi_pool_pad50_16_B_relu"
  type: "ReLU"
  bottom: "caffe.Eltwise_794_roi_pool_pad50_16_B"
  top: "caffe.Eltwise_794_roi_pool_pad50_16_B_gate_output"
}


layer {
  name: "caffe.Eltwise_794_roi_pool_pad16_B"
  type: "Convolution"
  bottom: "caffe.Eltwise_794_roi_pool_pad16"
  top: "caffe.Eltwise_794_roi_pool_pad16_B"
  param {
    lr_mult: 1
    decay_mult: 0
  }
  param {
    lr_mult: 1
    decay_mult: 0
  }
  convolution_param {
    num_output: 1024
    kernel_size: 3
    pad: 1
    weight_filler {
      type: "xavier"
      std: 0.001
    }
    bias_filler {
      type: "constant"
      value: 0
    }
  }
}
layer {
  name: "caffe.Eltwise_794_roi_pool_pad16_B_relu"
  type: "ReLU"
  bottom: "caffe.Eltwise_794_roi_pool_pad16_B"
  top: "caffe.Eltwise_794_roi_pool_pad16_B"
}
layer {
  name: "caffe.Eltwise_794_roi_pool_pad50_16_B_SUM"
  type: "Eltwise"
  bottom: "caffe.Eltwise_794_roi_pool_pad50_16_B_gate_output"
  bottom: "caffe.Eltwise_794_roi_pool_pad16_B"
  top: "caffe.Eltwise_794_roi_pool_pad16_B_SUM"
  eltwise_param {
    operation: SUM
    coeff: 1
    coeff: 1
  }
}
layer {
  name: "caffe.Eltwise_794_roi_pool_pad16_n28_B"
  type: "Convolution"
  bottom: "caffe.Eltwise_794_roi_pool_pad16_B_SUM"
  top: "caffe.Eltwise_794_roi_pool_pad16_n28_B"
  param {
    lr_mult: 1
    decay_mult: 0
  }
  param {
    lr_mult: 1
    decay_mult: 0
  }
  convolution_param {
    num_output: 1024
    kernel_size: 3
    pad: 1
    weight_filler {
      type: "xavier"
      std: 0.001
    }
    bias_filler {
      type: "constant"
      value: 0
    }
  }
}
layer {
  name: "caffe.Eltwise_794_roi_pool_pad16_n28_B_relu"
  type: "ReLU"
  bottom: "caffe.Eltwise_794_roi_pool_pad16_n28_B"
  top: "caffe.Eltwise_794_roi_pool_pad16_n28_B_gate_output"
}

layer {
  name: "caffe.Eltwise_794_roi_pool_padn28_B"
  type: "Convolution"
  bottom: "caffe.Eltwise_794_roi_pool_padn28"
  top: "caffe.Eltwise_794_roi_pool_padn28_B"
  param {
    lr_mult: 1
    decay_mult: 0
  }
  param {
    lr_mult: 1
    decay_mult: 0
  }
  convolution_param {
    num_output: 1024
    kernel_size: 3
    pad: 1
    weight_filler {
      type: "xavier"
      std: 0.001
    }
    bias_filler {
      type: "constant"
      value: 0
    }
  }
}
layer {
  name: "caffe.Eltwise_794_roi_pool_padn28_B_relu"
  type: "ReLU"
  bottom: "caffe.Eltwise_794_roi_pool_padn28_B"
  top: "caffe.Eltwise_794_roi_pool_padn28_B"
}
layer {
  name: "caffe.Eltwise_794_roi_pool_pad16_n28_B_SUM"
  type: "Eltwise"
  bottom: "caffe.Eltwise_794_roi_pool_pad16_n28_B_gate_output"
  bottom: "caffe.Eltwise_794_roi_pool_padn28_B"
  top: "caffe.Eltwise_794_roi_pool_padn28_B_SUM"
  eltwise_param {
    operation: SUM
    coeff: 1
    coeff: 1
  }
}
###### concat S_B

layer {
  name: "caffe.Eltwise_794_roi_pool_padn28_S_B"
  type: "Eltwise"
  bottom: "caffe.Eltwise_794_roi_pool_padn28_S"
  bottom: "caffe.Eltwise_794_roi_pool_padn28_B_SUM"
  top: "caffe.Eltwise_794_roi_pool_padn28_S_B_conv"
  eltwise_param {operation: MAX coeff: 0.5 coeff: 0.5}
}
layer {
  name: "caffe.Eltwise_794_roi_pool_pad16_S_B"
  type: "Eltwise"
  bottom: "caffe.Eltwise_794_roi_pool_pad16_S_SUM"
  bottom: "caffe.Eltwise_794_roi_pool_pad16_B_SUM"
  top: "caffe.Eltwise_794_roi_pool_pad16_S_B_conv"
  eltwise_param {operation: MAX coeff: 0.5 coeff: 0.5}
}
layer {
  name: "caffe.Eltwise_794_roi_pool_pad50_S_B"
  type: "Eltwise"
  bottom: "caffe.Eltwise_794_roi_pool_pad50_S_SUM"
  bottom: "caffe.Eltwise_794_roi_pool_pad50_B_SUM"
  top: "caffe.Eltwise_794_roi_pool_pad50_S_B_conv"
  eltwise_param {operation: MAX coeff: 0.5 coeff: 0.5}
}
layer {
  name: "caffe.Eltwise_794_roi_pool_pad70_S_B"
  type: "Eltwise"
  bottom: "caffe.Eltwise_794_roi_pool_pad70_S_SUM"
  bottom: "caffe.Eltwise_794_roi_pool_pad70_B"
  top: "caffe.Eltwise_794_roi_pool_pad70_S_B_conv"
  eltwise_param {operation: MAX coeff: 0.5 coeff: 0.5}
}

layer {
  name: "caffe.Eltwise_794_roi_pool_image_context"
  type: "Concat"
  bottom: "caffe.Eltwise_794_roi_pool_pad16_S_B_conv"
  bottom: "caffe.Eltwise_794_roi_pool_padn28_S_B_conv"
  bottom: "caffe.Eltwise_794_roi_pool_pad50_S_B_conv"
  bottom: "caffe.Eltwise_794_roi_pool_pad70_S_B_conv"
  top: "caffe.Eltwise_794_roi_pool2"
  concat_param{
    axis: 0
  }
}

layer {
  name: "caffe.Eltwise_794_roi_pool_SUM"
  type: "Eltwise"
  bottom: "caffe.Eltwise_794_roi_pool1"
  bottom: "caffe.Eltwise_794_roi_pool2"
  top: "caffe.Eltwise_794_roi_pool"
  eltwise_param {
    operation: SUM
    coeff: 1
    coeff: 0.5
  }
}

#########################GBD-NET#####################################

layer {
  name: "caffe.BN_795"
  type: "BN"
  bottom: "caffe.Eltwise_794_roi_pool"
  top: "caffe.BN_795"
  param {
    lr_mult: 1
    decay_mult: 0
  }
  param {
    lr_mult: 1
    decay_mult: 0
  }
  bn_param { frozen: true
    slope_filler {
      value: 1
    }
    bias_filler {
      value: 0
    }
  }
}
layer {
  name: "caffe.ReLU_796"
  type: "ReLU"
  bottom: "caffe.BN_795"
  top: "caffe.BN_795"
}
layer {
  name: "caffe.SpatialConvolution_797"
  type: "Convolution"
  bottom: "caffe.BN_795"
  top: "caffe.SpatialConvolution_797"
  convolution_param {
    num_output: 256
    bias_term: false
    pad_h: 0
    pad_w: 0
    kernel_h: 1
    kernel_w: 1
    stride_h: 1
    stride_w: 1
  }
}
layer {
  name: "caffe.BN_798"
  type: "BN"
  bottom: "caffe.SpatialConvolution_797"
  top: "caffe.BN_798"
  param {
    lr_mult: 1
    decay_mult: 0
  }
  param {
    lr_mult: 1
    decay_mult: 0
  }
  bn_param { frozen: true
    slope_filler {
      value: 1
    }
    bias_filler {
      value: 0
    }
  }
}
layer {
  name: "caffe.ReLU_799"
  type: "ReLU"
  bottom: "caffe.BN_798"
  top: "caffe.BN_798"
}
layer {
  name: "caffe.SpatialConvolution_800"
  type: "Convolution"
  bottom: "caffe.BN_798"
  top: "caffe.SpatialConvolution_800"
  convolution_param {
    num_output: 256
    bias_term: false
    pad_h: 1
    pad_w: 1
    kernel_h: 3
    kernel_w: 3
    stride_h: 1
    stride_w: 1
  }
}
layer {
  name: "caffe.BN_801"
  type: "BN"
  bottom: "caffe.SpatialConvolution_800"
  top: "caffe.BN_801"
  param {
    lr_mult: 1
    decay_mult: 0
  }
  param {
    lr_mult: 1
    decay_mult: 0
  }
  bn_param { frozen: true
    slope_filler {
      value: 1
    }
    bias_filler {
      value: 0
    }
  }
}
layer {
  name: "caffe.ReLU_802"
  type: "ReLU"
  bottom: "caffe.BN_801"
  top: "caffe.BN_801"
}
layer {
  name: "caffe.SpatialConvolution_803"
  type: "Convolution"
  bottom: "caffe.BN_801"
  top: "caffe.SpatialConvolution_803"
  convolution_param {
    num_output: 1024
    bias_term: false
    pad_h: 0
    pad_w: 0
    kernel_h: 1
    kernel_w: 1
    stride_h: 1
    stride_w: 1
  }
}
layer {
  name: "caffe.Eltwise_804"
  type: "Eltwise"
  bottom: "caffe.SpatialConvolution_803"
  bottom: "caffe.Eltwise_794_roi_pool"
  top: "caffe.Eltwise_804"
}
layer {
  name: "caffe.BN_805"
  type: "BN"
  bottom: "caffe.Eltwise_804"
  top: "caffe.BN_805"
  param {
    lr_mult: 1
    decay_mult: 0
  }
  param {
    lr_mult: 1
    decay_mult: 0
  }
  bn_param { frozen: true
    slope_filler {
      value: 1
    }
    bias_filler {
      value: 0
    }
  }
}
layer {
  name: "caffe.ReLU_806"
  type: "ReLU"
  bottom: "caffe.BN_805"
  top: "caffe.BN_805"
}
layer {
  name: "caffe.SpatialConvolution_807"
  type: "Convolution"
  bottom: "caffe.BN_805"
  top: "caffe.SpatialConvolution_807"
  convolution_param {
    num_output: 256
    bias_term: false
    pad_h: 0
    pad_w: 0
    kernel_h: 1
    kernel_w: 1
    stride_h: 1
    stride_w: 1
  }
}
layer {
  name: "caffe.BN_808"
  type: "BN"
  bottom: "caffe.SpatialConvolution_807"
  top: "caffe.BN_808"
  param {
    lr_mult: 1
    decay_mult: 0
  }
  param {
    lr_mult: 1
    decay_mult: 0
  }
  bn_param { frozen: true
    slope_filler {
      value: 1
    }
    bias_filler {
      value: 0
    }
  }
}
layer {
  name: "caffe.ReLU_809"
  type: "ReLU"
  bottom: "caffe.BN_808"
  top: "caffe.BN_808"
}
layer {
  name: "caffe.SpatialConvolution_810"
  type: "Convolution"
  bottom: "caffe.BN_808"
  top: "caffe.SpatialConvolution_810"
  convolution_param {
    num_output: 256
    bias_term: false
    pad_h: 1
    pad_w: 1
    kernel_h: 3
    kernel_w: 3
    stride_h: 1
    stride_w: 1
  }
}
layer {
  name: "caffe.BN_811"
  type: "BN"
  bottom: "caffe.SpatialConvolution_810"
  top: "caffe.BN_811"
  param {
    lr_mult: 1
    decay_mult: 0
  }
  param {
    lr_mult: 1
    decay_mult: 0
  }
  bn_param { frozen: true
    slope_filler {
      value: 1
    }
    bias_filler {
      value: 0
    }
  }
}
layer {
  name: "caffe.ReLU_812"
  type: "ReLU"
  bottom: "caffe.BN_811"
  top: "caffe.BN_811"
}
layer {
  name: "caffe.SpatialConvolution_813"
  type: "Convolution"
  bottom: "caffe.BN_811"
  top: "caffe.SpatialConvolution_813"
  convolution_param {
    num_output: 1024
    bias_term: false
    pad_h: 0
    pad_w: 0
    kernel_h: 1
    kernel_w: 1
    stride_h: 1
    stride_w: 1
  }
}
layer {
  name: "caffe.Eltwise_814"
  type: "Eltwise"
  bottom: "caffe.SpatialConvolution_813"
  bottom: "caffe.Eltwise_804"
  top: "caffe.Eltwise_814"
}
layer {
  name: "caffe.BN_815"
  type: "BN"
  bottom: "caffe.Eltwise_814"
  top: "caffe.BN_815"
  param {
    lr_mult: 1
    decay_mult: 0
  }
  param {
    lr_mult: 1
    decay_mult: 0
  }
  bn_param { frozen: true
    slope_filler {
      value: 1
    }
    bias_filler {
      value: 0
    }
  }
}
layer {
  name: "caffe.ReLU_816"
  type: "ReLU"
  bottom: "caffe.BN_815"
  top: "caffe.BN_815"
}
layer {
  name: "caffe.SpatialConvolution_817"
  type: "Convolution"
  bottom: "caffe.BN_815"
  top: "caffe.SpatialConvolution_817"
  convolution_param {
    num_output: 512
    bias_term: false
    pad_h: 0
    pad_w: 0
    kernel_h: 1
    kernel_w: 1
    stride_h: 1
    stride_w: 1
  }
}
layer {
  name: "caffe.BN_818"
  type: "BN"
  bottom: "caffe.SpatialConvolution_817"
  top: "caffe.BN_818"
  param {
    lr_mult: 1
    decay_mult: 0
  }
  param {
    lr_mult: 1
    decay_mult: 0
  }
  bn_param { frozen: true
    slope_filler {
      value: 1
    }
    bias_filler {
      value: 0
    }
  }
}
layer {
  name: "caffe.ReLU_819"
  type: "ReLU"
  bottom: "caffe.BN_818"
  top: "caffe.BN_818"
}
layer {
  name: "caffe.SpatialConvolution_820"
  type: "Convolution"
  bottom: "caffe.BN_818"
  top: "caffe.SpatialConvolution_820"
  convolution_param {
    num_output: 512
    bias_term: false
    pad_h: 1
    pad_w: 1
    kernel_h: 3
    kernel_w: 3
    stride_h: 2
    stride_w: 2
  }
}
layer {
  name: "caffe.BN_821"
  type: "BN"
  bottom: "caffe.SpatialConvolution_820"
  top: "caffe.BN_821"
  param {
    lr_mult: 1
    decay_mult: 0
  }
  param {
    lr_mult: 1
    decay_mult: 0
  }
  bn_param { frozen: true
    slope_filler {
      value: 1
    }
    bias_filler {
      value: 0
    }
  }
}
layer {
  name: "caffe.ReLU_822"
  type: "ReLU"
  bottom: "caffe.BN_821"
  top: "caffe.BN_821"
}
layer {
  name: "caffe.SpatialConvolution_823"
  type: "Convolution"
  bottom: "caffe.BN_821"
  top: "caffe.SpatialConvolution_823"
  convolution_param {
    num_output: 2048
    bias_term: false
    pad_h: 0
    pad_w: 0
    kernel_h: 1
    kernel_w: 1
    stride_h: 1
    stride_w: 1
  }
}
layer {
  name: "caffe.SpatialConvolution_824"
  type: "Convolution"
  bottom: "caffe.BN_815"
  top: "caffe.SpatialConvolution_824"
  convolution_param {
    num_output: 2048
    bias_term: false
    pad_h: 0
    pad_w: 0
    kernel_h: 1
    kernel_w: 1
    stride_h: 2
    stride_w: 2
  }
}
layer {
  name: "caffe.Eltwise_825"
  type: "Eltwise"
  bottom: "caffe.SpatialConvolution_823"
  bottom: "caffe.SpatialConvolution_824"
  top: "caffe.Eltwise_825"
}
layer {
  name: "caffe.BN_826"
  type: "BN"
  bottom: "caffe.Eltwise_825"
  top: "caffe.BN_826"
  param {
    lr_mult: 1
    decay_mult: 0
  }
  param {
    lr_mult: 1
    decay_mult: 0
  }
  bn_param { frozen: true
    slope_filler {
      value: 1
    }
    bias_filler {
      value: 0
    }
  }
}
layer {
  name: "caffe.ReLU_827"
  type: "ReLU"
  bottom: "caffe.BN_826"
  top: "caffe.BN_826"
}
layer {
  name: "caffe.SpatialConvolution_828"
  type: "Convolution"
  bottom: "caffe.BN_826"
  top: "caffe.SpatialConvolution_828"
  convolution_param {
    num_output: 512
    bias_term: false
    pad_h: 0
    pad_w: 0
    kernel_h: 1
    kernel_w: 1
    stride_h: 1
    stride_w: 1
  }
}
layer {
  name: "caffe.BN_829"
  type: "BN"
  bottom: "caffe.SpatialConvolution_828"
  top: "caffe.BN_829"
  param {
    lr_mult: 1
    decay_mult: 0
  }
  param {
    lr_mult: 1
    decay_mult: 0
  }
  bn_param { frozen: true
    slope_filler {
      value: 1
    }
    bias_filler {
      value: 0
    }
  }
}
layer {
  name: "caffe.ReLU_830"
  type: "ReLU"
  bottom: "caffe.BN_829"
  top: "caffe.BN_829"
}
layer {
  name: "caffe.SpatialConvolution_831"
  type: "Convolution"
  bottom: "caffe.BN_829"
  top: "caffe.SpatialConvolution_831"
  convolution_param {
    num_output: 512
    bias_term: false
    pad_h: 1
    pad_w: 1
    kernel_h: 3
    kernel_w: 3
    stride_h: 1
    stride_w: 1
  }
}
layer {
  name: "caffe.BN_832"
  type: "BN"
  bottom: "caffe.SpatialConvolution_831"
  top: "caffe.BN_832"
  param {
    lr_mult: 1
    decay_mult: 0
  }
  param {
    lr_mult: 1
    decay_mult: 0
  }
  bn_param { frozen: true
    slope_filler {
      value: 1
    }
    bias_filler {
      value: 0
    }
  }
}
layer {
  name: "caffe.ReLU_833"
  type: "ReLU"
  bottom: "caffe.BN_832"
  top: "caffe.BN_832"
}
layer {
  name: "caffe.SpatialConvolution_834"
  type: "Convolution"
  bottom: "caffe.BN_832"
  top: "caffe.SpatialConvolution_834"
  convolution_param {
    num_output: 2048
    bias_term: false
    pad_h: 0
    pad_w: 0
    kernel_h: 1
    kernel_w: 1
    stride_h: 1
    stride_w: 1
  }
}
layer {
  name: "caffe.Eltwise_835"
  type: "Eltwise"
  bottom: "caffe.SpatialConvolution_834"
  bottom: "caffe.Eltwise_825"
  top: "caffe.Eltwise_835"
}
layer {
  name: "caffe.BN_836"
  type: "BN"
  bottom: "caffe.Eltwise_835"
  top: "caffe.BN_836"
  param {
    lr_mult: 1
    decay_mult: 0
  }
  param {
    lr_mult: 1
    decay_mult: 0
  }
  bn_param { frozen: true
    slope_filler {
      value: 1
    }
    bias_filler {
      value: 0
    }
  }
}
layer {
  name: "caffe.ReLU_837"
  type: "ReLU"
  bottom: "caffe.BN_836"
  top: "caffe.BN_836"
}
layer {
  name: "caffe.SpatialConvolution_838"
  type: "Convolution"
  bottom: "caffe.BN_836"
  top: "caffe.SpatialConvolution_838"
  convolution_param {
    num_output: 512
    bias_term: false
    pad_h: 0
    pad_w: 0
    kernel_h: 1
    kernel_w: 1
    stride_h: 1
    stride_w: 1
  }
}
layer {
  name: "caffe.BN_839"
  type: "BN"
  bottom: "caffe.SpatialConvolution_838"
  top: "caffe.BN_839"
  param {
    lr_mult: 1
    decay_mult: 0
  }
  param {
    lr_mult: 1
    decay_mult: 0
  }
  bn_param { frozen: true
    slope_filler {
      value: 1
    }
    bias_filler {
      value: 0
    }
  }
}
layer {
  name: "caffe.ReLU_840"
  type: "ReLU"
  bottom: "caffe.BN_839"
  top: "caffe.BN_839"
}
layer {
  name: "caffe.SpatialConvolution_841"
  type: "Convolution"
  bottom: "caffe.BN_839"
  top: "caffe.SpatialConvolution_841"
  convolution_param {
    num_output: 512
    bias_term: false
    pad_h: 1
    pad_w: 1
    kernel_h: 3
    kernel_w: 3
    stride_h: 1
    stride_w: 1
  }
}
layer {
  name: "caffe.BN_842"
  type: "BN"
  bottom: "caffe.SpatialConvolution_841"
  top: "caffe.BN_842"
  param {
    lr_mult: 1
    decay_mult: 0
  }
  param {
    lr_mult: 1
    decay_mult: 0
  }
  bn_param { frozen: true
    slope_filler {
      value: 1
    }
    bias_filler {
      value: 0
    }
  }
}
layer {
  name: "caffe.ReLU_843"
  type: "ReLU"
  bottom: "caffe.BN_842"
  top: "caffe.BN_842"
}
layer {
  name: "caffe.SpatialConvolution_844"
  type: "Convolution"
  bottom: "caffe.BN_842"
  top: "caffe.SpatialConvolution_844"
  convolution_param {
    num_output: 2048
    bias_term: false
    pad_h: 0
    pad_w: 0
    kernel_h: 1
    kernel_w: 1
    stride_h: 1
    stride_w: 1
  }
}
layer {
  name: "caffe.Eltwise_845"
  type: "Eltwise"
  bottom: "caffe.SpatialConvolution_844"
  bottom: "caffe.Eltwise_835"
  top: "caffe.Eltwise_845"
}
layer {
  name: "caffe.BN_846"
  type: "BN"
  bottom: "caffe.Eltwise_845"
  top: "caffe.BN_846"
  param {
    lr_mult: 1
    decay_mult: 0
  }
  param {
    lr_mult: 1
    decay_mult: 0
  }
  bn_param { frozen: true
    slope_filler {
      value: 1
    }
    bias_filler {
      value: 0
    }
  }
}
layer {
  name: "caffe.ReLU_847"
  type: "ReLU"
  bottom: "caffe.BN_846"
  top: "caffe.BN_846"
}
layer {
  name: "caffe.SpatialConvolution_848"
  type: "Convolution"
  bottom: "caffe.BN_846"
  top: "caffe.SpatialConvolution_848"
  convolution_param {
    num_output: 512
    bias_term: false
    pad_h: 0
    pad_w: 0
    kernel_h: 1
    kernel_w: 1
    stride_h: 1
    stride_w: 1
  }
}
layer {
  name: "caffe.BN_849"
  type: "BN"
  bottom: "caffe.SpatialConvolution_848"
  top: "caffe.BN_849"
  param {
    lr_mult: 1
    decay_mult: 0
  }
  param {
    lr_mult: 1
    decay_mult: 0
  }
  bn_param { frozen: true
    slope_filler {
      value: 1
    }
    bias_filler {
      value: 0
    }
  }
}
layer {
  name: "caffe.ReLU_850"
  type: "ReLU"
  bottom: "caffe.BN_849"
  top: "caffe.BN_849"
}
layer {
  name: "caffe.SpatialConvolution_851"
  type: "Convolution"
  bottom: "caffe.BN_849"
  top: "caffe.SpatialConvolution_851"
  convolution_param {
    num_output: 512
    bias_term: false
    pad_h: 1
    pad_w: 1
    kernel_h: 3
    kernel_w: 3
    stride_h: 1
    stride_w: 1
  }
}
layer {
  name: "caffe.BN_852"
  type: "BN"
  bottom: "caffe.SpatialConvolution_851"
  top: "caffe.BN_852"
  param {
    lr_mult: 1
    decay_mult: 0
  }
  param {
    lr_mult: 1
    decay_mult: 0
  }
  bn_param { frozen: true
    slope_filler {
      value: 1
    }
    bias_filler {
      value: 0
    }
  }
}
layer {
  name: "caffe.ReLU_853"
  type: "ReLU"
  bottom: "caffe.BN_852"
  top: "caffe.BN_852"
}
layer {
  name: "caffe.SpatialConvolution_854"
  type: "Convolution"
  bottom: "caffe.BN_852"
  top: "caffe.SpatialConvolution_854"
  convolution_param {
    num_output: 2048
    bias_term: false
    pad_h: 0
    pad_w: 0
    kernel_h: 1
    kernel_w: 1
    stride_h: 1
    stride_w: 1
  }
}
layer {
  name: "caffe.Eltwise_855"
  type: "Eltwise"
  bottom: "caffe.SpatialConvolution_854"
  bottom: "caffe.Eltwise_845"
  top: "caffe.Eltwise_855"
}
layer {
  name: "caffe.BN_856"
  type: "BN"
  bottom: "caffe.Eltwise_855"
  top: "caffe.BN_856"
  param {
    lr_mult: 1
    decay_mult: 0
  }
  param {
    lr_mult: 1
    decay_mult: 0
  }
  bn_param { frozen: true
    slope_filler {
      value: 1
    }
    bias_filler {
      value: 0
    }
  }
}
layer {
  name: "caffe.ReLU_857"
  type: "ReLU"
  bottom: "caffe.BN_856"
  top: "caffe.BN_856"
}
layer {
  name: "caffe.SpatialConvolution_858"
  type: "Convolution"
  bottom: "caffe.BN_856"
  top: "caffe.SpatialConvolution_858"
  convolution_param {
    num_output: 512
    bias_term: false
    pad_h: 0
    pad_w: 0
    kernel_h: 1
    kernel_w: 1
    stride_h: 1
    stride_w: 1
  }
}
layer {
  name: "caffe.BN_859"
  type: "BN"
  bottom: "caffe.SpatialConvolution_858"
  top: "caffe.BN_859"
  param {
    lr_mult: 1
    decay_mult: 0
  }
  param {
    lr_mult: 1
    decay_mult: 0
  }
  bn_param { frozen: true
    slope_filler {
      value: 1
    }
    bias_filler {
      value: 0
    }
  }
}
layer {
  name: "caffe.ReLU_860"
  type: "ReLU"
  bottom: "caffe.BN_859"
  top: "caffe.BN_859"
}
layer {
  name: "caffe.SpatialConvolution_861"
  type: "Convolution"
  bottom: "caffe.BN_859"
  top: "caffe.SpatialConvolution_861"
  convolution_param {
    num_output: 512
    bias_term: false
    pad_h: 1
    pad_w: 1
    kernel_h: 3
    kernel_w: 3
    stride_h: 1
    stride_w: 1
  }
}
layer {
  name: "caffe.BN_862"
  type: "BN"
  bottom: "caffe.SpatialConvolution_861"
  top: "caffe.BN_862"
  param {
    lr_mult: 1
    decay_mult: 0
  }
  param {
    lr_mult: 1
    decay_mult: 0
  }
  bn_param { frozen: true
    slope_filler {
      value: 1
    }
    bias_filler {
      value: 0
    }
  }
}
layer {
  name: "caffe.ReLU_863"
  type: "ReLU"
  bottom: "caffe.BN_862"
  top: "caffe.BN_862"
}
layer {
  name: "caffe.SpatialConvolution_864"
  type: "Convolution"
  bottom: "caffe.BN_862"
  top: "caffe.SpatialConvolution_864"
  convolution_param {
    num_output: 2048
    bias_term: false
    pad_h: 0
    pad_w: 0
    kernel_h: 1
    kernel_w: 1
    stride_h: 1
    stride_w: 1
  }
}
layer {
  name: "caffe.Eltwise_865"
  type: "Eltwise"
  bottom: "caffe.SpatialConvolution_864"
  bottom: "caffe.Eltwise_855"
  top: "caffe.Eltwise_865"
}
layer {
  name: "caffe.BN_866"
  type: "BN"
  bottom: "caffe.Eltwise_865"
  top: "caffe.BN_866"
  param {
    lr_mult: 1
    decay_mult: 0
  }
  param {
    lr_mult: 1
    decay_mult: 0
  }
  bn_param { frozen: true
    slope_filler {
      value: 1
    }
    bias_filler {
      value: 0
    }
  }
}
layer {
  name: "caffe.ReLU_867"
  type: "ReLU"
  bottom: "caffe.BN_866"
  top: "caffe.BN_866"
}
layer {
  name: "caffe.SpatialConvolution_868"
  type: "Convolution"
  bottom: "caffe.BN_866"
  top: "caffe.SpatialConvolution_868"
  convolution_param {
    num_output: 512
    bias_term: false
    pad_h: 0
    pad_w: 0
    kernel_h: 1
    kernel_w: 1
    stride_h: 1
    stride_w: 1
  }
}
layer {
  name: "caffe.BN_869"
  type: "BN"
  bottom: "caffe.SpatialConvolution_868"
  top: "caffe.BN_869"
  param {
    lr_mult: 1
    decay_mult: 0
  }
  param {
    lr_mult: 1
    decay_mult: 0
  }
  bn_param { frozen: true
    slope_filler {
      value: 1
    }
    bias_filler {
      value: 0
    }
  }
}
layer {
  name: "caffe.ReLU_870"
  type: "ReLU"
  bottom: "caffe.BN_869"
  top: "caffe.BN_869"
}
layer {
  name: "caffe.SpatialConvolution_871"
  type: "Convolution"
  bottom: "caffe.BN_869"
  top: "caffe.SpatialConvolution_871"
  convolution_param {
    num_output: 512
    bias_term: false
    pad_h: 1
    pad_w: 1
    kernel_h: 3
    kernel_w: 3
    stride_h: 1
    stride_w: 1
  }
}
layer {
  name: "caffe.BN_872"
  type: "BN"
  bottom: "caffe.SpatialConvolution_871"
  top: "caffe.BN_872"
  param {
    lr_mult: 1
    decay_mult: 0
  }
  param {
    lr_mult: 1
    decay_mult: 0
  }
  bn_param { frozen: true
    slope_filler {
      value: 1
    }
    bias_filler {
      value: 0
    }
  }
}
layer {
  name: "caffe.ReLU_873"
  type: "ReLU"
  bottom: "caffe.BN_872"
  top: "caffe.BN_872"
}
layer {
  name: "caffe.SpatialConvolution_874"
  type: "Convolution"
  bottom: "caffe.BN_872"
  top: "caffe.SpatialConvolution_874"
  convolution_param {
    num_output: 2048
    bias_term: false
    pad_h: 0
    pad_w: 0
    kernel_h: 1
    kernel_w: 1
    stride_h: 1
    stride_w: 1
  }
}
layer {
  name: "caffe.Eltwise_875"
  type: "Eltwise"
  bottom: "caffe.SpatialConvolution_874"
  bottom: "caffe.Eltwise_865"
  top: "caffe.Eltwise_875"
}
layer {
  name: "caffe.BN_876"
  type: "BN"
  bottom: "caffe.Eltwise_875"
  top: "caffe.BN_876"
  param {
    lr_mult: 1
    decay_mult: 0
  }
  param {
    lr_mult: 1
    decay_mult: 0
  }
  bn_param { frozen: true
    slope_filler {
      value: 1
    }
    bias_filler {
      value: 0
    }
  }
}
layer {
  name: "caffe.ReLU_877"
  type: "ReLU"
  bottom: "caffe.BN_876"
  top: "caffe.BN_876"
}
layer {
  name: "caffe.SpatialConvolution_878"
  type: "Convolution"
  bottom: "caffe.BN_876"
  top: "caffe.SpatialConvolution_878"
  convolution_param {
    num_output: 512
    bias_term: false
    pad_h: 0
    pad_w: 0
    kernel_h: 1
    kernel_w: 1
    stride_h: 1
    stride_w: 1
  }
}
layer {
  name: "caffe.BN_879"
  type: "BN"
  bottom: "caffe.SpatialConvolution_878"
  top: "caffe.BN_879"
  param {
    lr_mult: 1
    decay_mult: 0
  }
  param {
    lr_mult: 1
    decay_mult: 0
  }
  bn_param { frozen: true
    slope_filler {
      value: 1
    }
    bias_filler {
      value: 0
    }
  }
}
layer {
  name: "caffe.ReLU_880"
  type: "ReLU"
  bottom: "caffe.BN_879"
  top: "caffe.BN_879"
}
layer {
  name: "caffe.SpatialConvolution_881"
  type: "Convolution"
  bottom: "caffe.BN_879"
  top: "caffe.SpatialConvolution_881"
  convolution_param {
    num_output: 512
    bias_term: false
    pad_h: 1
    pad_w: 1
    kernel_h: 3
    kernel_w: 3
    stride_h: 1
    stride_w: 1
  }
}
layer {
  name: "caffe.BN_882"
  type: "BN"
  bottom: "caffe.SpatialConvolution_881"
  top: "caffe.BN_882"
  param {
    lr_mult: 1
    decay_mult: 0
  }
  param {
    lr_mult: 1
    decay_mult: 0
  }
  bn_param { frozen: true
    slope_filler {
      value: 1
    }
    bias_filler {
      value: 0
    }
  }
}
layer {
  name: "caffe.ReLU_883"
  type: "ReLU"
  bottom: "caffe.BN_882"
  top: "caffe.BN_882"
}
layer {
  name: "caffe.SpatialConvolution_884"
  type: "Convolution"
  bottom: "caffe.BN_882"
  top: "caffe.SpatialConvolution_884"
  convolution_param {
    num_output: 2048
    bias_term: false
    pad_h: 0
    pad_w: 0
    kernel_h: 1
    kernel_w: 1
    stride_h: 1
    stride_w: 1
  }
}
layer {
  name: "caffe.Eltwise_885"
  type: "Eltwise"
  bottom: "caffe.SpatialConvolution_884"
  bottom: "caffe.Eltwise_875"
  top: "caffe.Eltwise_885"
}
layer {
  name: "caffe.BN_886"
  type: "BN"
  bottom: "caffe.Eltwise_885"
  top: "caffe.BN_886"
  param {
    lr_mult: 1
    decay_mult: 0
  }
  param {
    lr_mult: 1
    decay_mult: 0
  }
  bn_param { frozen: true
    slope_filler {
      value: 1
    }
    bias_filler {
      value: 0
    }
  }
}
layer {
  name: "caffe.ReLU_887"
  type: "ReLU"
  bottom: "caffe.BN_886"
  top: "caffe.BN_886"
}
layer {
  name: "caffe.SpatialConvolution_888"
  type: "Convolution"
  bottom: "caffe.BN_886"
  top: "caffe.SpatialConvolution_888"
  convolution_param {
    num_output: 512
    bias_term: false
    pad_h: 0
    pad_w: 0
    kernel_h: 1
    kernel_w: 1
    stride_h: 1
    stride_w: 1
  }
}
layer {
  name: "caffe.BN_889"
  type: "BN"
  bottom: "caffe.SpatialConvolution_888"
  top: "caffe.BN_889"
  param {
    lr_mult: 1
    decay_mult: 0
  }
  param {
    lr_mult: 1
    decay_mult: 0
  }
  bn_param { frozen: true
    slope_filler {
      value: 1
    }
    bias_filler {
      value: 0
    }
  }
}
layer {
  name: "caffe.ReLU_890"
  type: "ReLU"
  bottom: "caffe.BN_889"
  top: "caffe.BN_889"
}
layer {
  name: "caffe.SpatialConvolution_891"
  type: "Convolution"
  bottom: "caffe.BN_889"
  top: "caffe.SpatialConvolution_891"
  convolution_param {
    num_output: 512
    bias_term: false
    pad_h: 1
    pad_w: 1
    kernel_h: 3
    kernel_w: 3
    stride_h: 1
    stride_w: 1
  }
}
layer {
  name: "caffe.BN_892"
  type: "BN"
  bottom: "caffe.SpatialConvolution_891"
  top: "caffe.BN_892"
  param {
    lr_mult: 1
    decay_mult: 0
  }
  param {
    lr_mult: 1
    decay_mult: 0
  }
  bn_param { frozen: true
    slope_filler {
      value: 1
    }
    bias_filler {
      value: 0
    }
  }
}
layer {
  name: "caffe.ReLU_893"
  type: "ReLU"
  bottom: "caffe.BN_892"
  top: "caffe.BN_892"
}
layer {
  name: "caffe.SpatialConvolution_894"
  type: "Convolution"
  bottom: "caffe.BN_892"
  top: "caffe.SpatialConvolution_894"
  convolution_param {
    num_output: 2048
    bias_term: false
    pad_h: 0
    pad_w: 0
    kernel_h: 1
    kernel_w: 1
    stride_h: 1
    stride_w: 1
  }
}
layer {
  name: "caffe.Eltwise_895"
  type: "Eltwise"
  bottom: "caffe.SpatialConvolution_894"
  bottom: "caffe.Eltwise_885"
  top: "caffe.Eltwise_895"
}
layer {
  name: "caffe.BN_896"
  type: "BN"
  bottom: "caffe.Eltwise_895"
  top: "caffe.BN_896"
  param {
    lr_mult: 1
    decay_mult: 0
  }
  param {
    lr_mult: 1
    decay_mult: 0
  }
  bn_param { frozen: true
    slope_filler {
      value: 1
    }
    bias_filler {
      value: 0
    }
  }
}
layer {
  name: "caffe.ReLU_897"
  type: "ReLU"
  bottom: "caffe.BN_896"
  top: "caffe.BN_896"
}
layer {
  name: "caffe.Pooling_898"
  type: "Pooling"
  bottom: "caffe.BN_896"
  top: "caffe.Pooling_898"
  pooling_param {
    pool: AVE
    kernel_h: 7
    kernel_w: 7
    stride_h: 1
    stride_w: 1
    pad_h: 0
    pad_w: 0
  }
}
layer {
  name: "global_pool_context_slice"
  type: "Slice"
  bottom: "caffe.Pooling_898"
  top: "global_pool_context1"
  top: "global_pool_context2"
  top: "global_pool_context3"
  top: "global_pool_context4"
  slice_param {
    axis: 0
    slice_point: [150,300,450]
  }
}
layer {
  name: "global_pool_context_concat"
  type: "Concat"
  bottom: "global_pool_context1"
  bottom: "global_pool_context2"
  bottom: "global_pool_context3"
  bottom: "global_pool_context4"
  top: "global_pool_multi_context"
  concat_param {
    axis: 1
  }
}

####################################### loss #######################################
layer {
  name: "cls_score_finetune"
  type: "InnerProduct"
  bottom: "global_pool_multi_context"
  top: "cls_score"
  param {
    lr_mult: 1
    decay_mult: 1
  }
  param {
    lr_mult: 2
    decay_mult: 0
  }
  inner_product_param {
    num_output: 201
    weight_filler {
      type: "gaussian"
      std: 0.01
    }
    bias_filler {
      type: "constant"
      value: 0
    }
  }
}
layer {
  name: "bbox_pred_finetune"
  type: "InnerProduct"
  bottom: "global_pool_multi_context"
  top: "bbox_pred"
  param {
    lr_mult: 1
    decay_mult: 1
  }
  param {
    lr_mult: 2
    decay_mult: 0
  }
  inner_product_param {
    num_output: 804
    weight_filler {
      type: "gaussian"
      std: 0.001
    }
    bias_filler {
      type: "constant"
      value: 0
    }
  }
}

layer {
  name: "cls_prob"
  type: "Softmax"
  bottom: "cls_score"
  top: "cls_prob"
}

